checkpoint.pth (torch_old, 778447 bytes, 12 tensors)

fc1.weight f4 [512, 37]
00000000: a657 66be 9cfb 8d3d 4f0a 6dbd 13e1 f6be
00000010: 24b7 6abe af29 3abc 6912 1abd d86e 2a3e
00000020: 8455 c8bd e0a5 e6bd 86f7 4f3d 7739 1dbe
00000030: 3923 80be ac8f 9cbd 8284 30be e9d7 6abe
00000040: 98ec 91bd 904d 813d d117 d4bd c0e8 a8bd
00000050: f110 713d 5da0 5e3d a17d aabe 5ed1 5f3e
00000060: 737a 46be ceac 85bb ccb9 29bd ecc9 4abe
00000070: edef bfbc e41a 53bd 2dee f8bc e89b 633d
00000080: 1ee5 0abe ecec 8ebe 7615 51be a662 a6be
00000090: 867d d6bd 9e15 213e 402b 1bbd 31bc e13d
000000a0: eefc cebe 1dce 30bf 15b0 053e ebaa a7be
000000b0: 1bbc 78be 98ec 18be 5f70 3d3d 56a7 b93d
000000c0: 8546 55be 7125 b2bd 940e eb3d 22f2 e93c
000000d0: db38 d73d 8409 e2bc 60e0 dd3c fe79 05be
000000e0: f532 58bd 164a 6fbd f498 97bd 9816 38be
000000f0: b74d 023c f276 883e 66bf a8be f5d7 873e
00000100: e5a6 513d 727c 37bd c4e0 1c3e 5287 15bd
00000110: d083 18be f6d8 8e3e 83b3 acbe baf7 3cbe
00000120: eaee b93d 2ea3 593c 83f2 db3d 21b5 813d
00000130: f1ce 783e 5c93 24bf 4873 15be cc03 6bbe
00000140: 7070 1bbd 1a85 8e3e 07e0 e43c f8a2 2bbe
00000150: c1a0 c7bd a500 b1be 7d84 123e 6f1f 2f3e
00000160: d0f6 f7be 6707 1cbe 2508 cc3d 6a56 233e
00000170: e33f 28bd c6bd 1bbd e724 92be 7691 88bd
00000180: 8490 073e 1d29 ffbc 263b a0bd 0328 59bd
00000190: 47e7 413e c1e9 873d 1707 c5be 8d6d 0dbe
000001a0: 4690 8fbe a184 4e3e d5e6 48be 7bfe a8be
000001b0: bdc8 8ebd 0bbf 103c 98a5 943b 5fcf 2d3d
000001c0: 2be1 e4be 761c 923e 0306 cfbc 37ac f0be
000001d0: 4615 b5bd 475c 4abe 404e e73d 4abf 073e
000001e0: 027f 313e 733d f5bd 8467 fe3d f061 2bbe
000001f0: 9002 7dbe 8bd2 a3bd c1cb 38be 2f1f 953d
00000200: 8b7d 52be 7059 46be 4f12 9e3d 4c5a 563e
00000210: 2318 6bbe 398e 78be b0e1 53bd 09b3 213d
00000220: e23f 07bd 637d dabc a3dd 393d d030 cfbd
00000230: 71c9 f73e 83e3 9cbd 33f6 8d3e a97b a7be
00000240: 0b0a acbd 31fe 933d 7385 193e f23c febb
00000250: 7817 b7bb 21fe c4bd 28c4 b2be 2fb2 c1bd
00000260: 4c63 bbbd 563e 64bb 0a70 2c3d 927e f1be
00000270: 494c ea3e 4888 15be 1095 6cbd 9e2e 85be
00000280: 6e8f 0b3e 493f 873b 6e0a e1be 92dd 94be
00000290: a058 4d38 bbd8 193d eaa6 1f3e 4983 9a3d
000002a0: 6ca7 eebe 5148 513d f5ac fb3d 8259 0c3d
000002b0: 5222 b13e a30b a93d f08d a2bd 0237 b53d
000002c0: 9632 45bc b8bd 96bd 3b97 403e 129c d8bd
000002d0: fc4f 19be faa6 fa3d 74af 223d bf49 ac3d
000002e0: 736f 4f3c f1de ef3d 5ced 46bd 850d 103d
000002f0: abd5 a8bd df3f 353e 3e00 2cbe b592 c53e
00000300: 2960 f7bd 5660 a23e 6c27 e7bd 020f 0ebe
00000310: 9bce 2e3d 322f b43d a99f e5bd 68d2 113e
00000320: 87df 313d 0fce 3d3e cee8 49be 8a28 18bd
00000330: f36a 16be fc00 d53b ded9 1ebd a863 2c3e
00000340: 7bcd 513e aec9 6d3d 4e1b 45bc 7a6a af3d
00000350: cb76 b3ba ae80 9e3c eadb 993d 1c0a 473d
00000360: ce27 29bd 2450 0cbe 8da2 233e a471 5fbf
00000370: f6cd 4b3d 7442 6b3c 73b0 833e 2e93 3bbe
00000380: 29b4 8cbe f2ad 82be 85d8 9dbf 5192 21bd
00000390: 6bd6 f0bc 5ae1 91bd 6c01 f93d 4b7d 943e
000003a0: 7aaf 6a3d e79d f33d 5ef7 173e 858d 48be
000003b0: e413 eb3d be57 9bbd c825 8abd 2ef5 ab3c
000003c0: 5600 883c 2672 943e 7fda 81bc 9897 2ebd
000003d0: ca35 103d 5bda bbbd bd8f 3e3e 59d0 51be
000003e0: fbb8 72bc c838 b8bd f57c d03b b869 79bb
000003f0: 1925 063e 880a 87bb cdb8 33be 7a44 d2bd
-0.22494373 0.06932756 -0.05787116 -0.48218593 -0.22921425 -0.011362477 -0.037615214 0.16643846
-0.09781936 -0.11262107 0.050773166 -0.15353952 -0.25026873 -0.07644591 -0.17238048 -0.22933926
-0.07125205 0.06313622 -0.10356105 -0.082475185 0.058854047 0.054352153 -0.33298972 0.21857211
-0.19382648 -0.004079438 -0.041436955 -0.1980359 -0.023429835 -0.051539317 -0.030387009 0.055568606
-0.13563964 -0.27915132 -0.20418343 -0.32497138 -0.104731604 0.15730903 -0.037883043 0.11022223
-0.40427345 -0.69064504 0.13055451 -0.32747588 -0.24290507 -0.14934003 0.046249744 0.0906512
-0.20827682 -0.08698548 0.1147739 0.02855784 0.10508891 -0.027592428 0.02708453 -0.13034818
-0.05278297 -0.058420263 -0.0740222 -0.17977369 0.007953099 0.26653248 -0.32958525 0.2653195
0.051184554 -0.044796415 0.15320116 -0.036506005 -0.14894032 0.27899903 -0.33730707 -0.18453875
0.09078772 0.013283534 0.10739615 0.06333376 0.24297692 -0.6428735 -0.14594758 -0.22950667
-0.037949026 0.27835923 0.027938856 -0.16761386 -0.09747458 -0.34570804 0.14308353 0.17101835
-0.4843049 -0.15237199 0.09962491 0.15950933 -0.041076552 -0.03802278 -0.2854378 -0.066683695
0.13238722 -0.031147534 -0.07823782 -0.053016674 0.18935882 0.06636382 -0.38481972 -0.13811322
-0.2803976 0.20167781 -0.19619305 -0.33006653 -0.069718815 0.008834611 0.004536342 0.042434093
-0.4470304 0.2853734 -0.025271421 -0.4700639 -0.08841948 -0.19761764 0.11294222 0.13256565
0.17333606 -0.11974611 0.12422088 -0.16736579 -0.24708009 -0.07999142 -0.18046476 0.072813384
-0.20555703 -0.19370055 0.07718336 0.20932883 -0.22958426 -0.24273004 -0.051728904 0.03947738
-0.033019908 -0.026671117 0.045377385 -0.10116732 0.48395875 -0.07660582 0.27726898 -0.32711533
-0.08400353 0.072262175 0.14992313 -0.00775873 -0.0055875145 -0.09618784 -0.3491528 -0.09457814
-0.09149799 -0.0034827194 0.042099036 -0.47166878 0.45761326 -0.14602768 -0.057759345 -0.2601213
0.13628933 0.004127417 -0.4395327 -0.29075295 4.8958347e-05 0.037560206 0.15591016 0.07544572
-0.46612108 0.051094357 0.12288848 0.03426505 0.34596497 0.08254173 -0.07937229 0.088483825
-0.012035986 -0.07360405 0.1880769 -0.10576643 -0.14971918 0.122388795 0.039718106 0.084125035
0.012660849 0.117124446 -0.048566207 0.035169143 -0.08243879 0.17700146 -0.16796967 0.3858849
-0.12078888 0.31714123 -0.11286816 -0.13872913 0.042677503 0.08798064 -0.112120934 0.1424042
0.043426063 0.18535636 -0.19717714 -0.037148036 -0.14689235 0.0065003615 -0.038781993 0.16834891
0.20488541 0.058053665 -0.012030436 0.08565231 -0.0013692019 0.019348469 0.075126484 0.048593625
-0.041297726 -0.13702446 0.15979977 -0.87282777 0.049756967 0.014359105 0.25720558 -0.18317863
-0.274812 -0.25523335 -1.2331702 -0.03944618 -0.029399117 -0.071230605 0.12158474 0.2900184
0.057296254 0.11895352 0.14840457 -0.19585235 0.11478403 -0.07585095 -0.067454875 0.020990934
0.016601723 0.28993338 -0.015851257 -0.04262504 0.035207547 -0.091725074 0.1860952 -0.20489635
-0.014814611 -0.08995205 0.0063625523 -0.0038057398 0.13100089 -0.0041211285 -0.17550965 -0.10266967

fc1.bias f4 [512]
00000000: aaac 8bbe e7f1 b83c 0be6 843d db79 f0bd
00000010: 61bf 24bd 3006 e2bd e0d6 f73c a219 23be
00000020: df58 a9bb b47b 693d b4d1 66be c966 3b3e
00000030: 27ac e03c 3796 bbbd 1304 d8bd 0721 88be
00000040: f96e 03bb 8e2a 02bd 097f 10be 9df1 963d
00000050: ea46 e7bd a22b 74bd 5625 3d3b 483f 12bd
00000060: 45c3 bdbd a744 babd 3ca8 70be 316c 0f3e
00000070: cf0d ef3d 1657 023e 50c2 913d 126f e0bd
00000080: dd4a 05be 413c 82be 999f 2ebe aaf2 7fbe
00000090: 287d eebd a4af 50be 66ef 47be 24c9 78bd
000000a0: 466f 22be 2101 40bd c86a 15bd 5f86 b43c
000000b0: 8939 2a3d 5aed 67bc 98a0 4cbe 4344 1abd
000000c0: 64f2 09be 3457 7d3d a244 543d 7850 efbd
000000d0: 565e 203d 2baf bebd 0090 cabd 6866 33be
000000e0: 2d8e 883c ddf5 22be 895f 47bd 8096 97bd
000000f0: 1230 49bd 5c95 813d e5ae 9abc b698 5bbd
00000100: 7a6b 7b3d aa05 19be 4efb 743b 45c3 583d
00000110: 4a76 b5bc 695f 72be 9542 b43d 5f89 27be
00000120: ee3b 4bbc 13f1 0c3d 3298 63bd 8123 2f3c
00000130: e7d0 30be 83c8 37bb c805 c4bd dc4b 00be
00000140: 2e17 0abe 9c8d 683b 92ae 85be 85e3 c6bd
00000150: c2e9 2e3d 4b7c 813d a0e3 b4bd 60d3 3abd
00000160: 1d56 8d3d 1cd8 2bbe fe92 c7bd a99e 20be
00000170: f81e cebd a5a5 383c 54b9 183d 8adb 4abd
00000180: 9b03 0dbd a590 15be c135 e4bd 0663 fdbd
00000190: 28a3 6ebd e1d5 0d3d 74aa e7bd 01e0 f8bd
000001a0: c4eb 83be 3c19 0a3b 77b4 20be cfb9 7bbe
000001b0: cafd 9dba 161b 5dbc 148f debd 4a15 eebc
000001c0: bbf4 5bbe 1bfb 9a3d 74d0 35be d802 c53d
000001d0: 2d11 39bd 33c3 af3d a8b5 3bbc 4ca5 e8bc
000001e0: 3008 82bd 8f3b 0ebd 2591 9bbd f036 2dbd
000001f0: dfd6 f03d c229 4ebd 3f2e 35be 1bde 1abe
00000200: c37a e83c 03e9 0f3d 2576 80be e58a 35be
00000210: ab26 45be bebb 843c 2fba cdbd 558f 46bd
00000220: 11a5 1bbe b1f7 003d fb7f 86bd 0a92 7bbd
00000230: 7400 babc 2187 f43d ea17 2fbe 5497 c03d
00000240: 864b 25be eec7 9ebe 9244 31bd fa82 113e
00000250: 81b1 9bbd 2c43 1c3d 215a 32bc a70c f23c
00000260: 2d4a 3d3c f023 3bbe a37d 5cbe bc4d 09be
00000270: 9e1f 583c f804 45bd e81f 03be 7d5e 53be
00000280: 6fc6 1bbc 067e 40bd 2f81 56be ba76 353c
00000290: bdaa e5bd ca69 73be 12f1 5bbd a4dd 5dbd
000002a0: b1e9 81be e294 dcbd 6657 e63c 7339 3a3d
000002b0: 61ff babd 7d36 f0bd 9390 e5bd b946 1ebe
000002c0: 477c 71bd e1fb ebbc 0284 bc3c d203 fbbd
000002d0: 6310 17bd 8408 8cbe c2da dcbd c28a d33c
000002e0: 9490 65bc 7098 1ebe 68ef 5ebe 8bb0 cabd
000002f0: ceb5 2bbe 2286 77bd c768 f73d d181 a4bd
00000300: 6819 b8bd 18a5 0dbe 9367 d4bd a1c4 a3bd
00000310: d8c1 8bbd 41f8 54be 614e e13d 8b8d 2bbe
00000320: 2a6f 8e3d 6169 9dbd 26bd 8bbd 1eae b7ba
00000330: 76a6 3cbd d37e 22bd 2d29 16be 9f57 28be
00000340: cf7a 4b3d bc20 d23c 4696 303d 752b 993d
00000350: 8f35 d43c d092 923d 9d6c febd 756c e33c
00000360: f284 a5bc 9b96 b0bd 1cfc ea3c d9a6 3ebe
00000370: 3f53 9b39 300c 6fbe f399 273d cbac 7abd
00000380: 0aea dabc 90b6 943d 44f9 a13c b334 35be
00000390: 713e 59bd 975d ba3d eac5 46be 2732 20bd
000003a0: 4d4e 4ebe 0dc2 84bc dfec ebbc e027 89bd
000003b0: 85f9 12bd 52a9 2c3e 088f 4fbd f76e 22be
000003c0: f4ea cb3d 9390 86bd 2939 a3bc 95b7 b9bc
000003d0: de1e 893b 1a88 46be 8565 27bd f60b a93d
000003e0: cf85 03bd 54ff f73b c7df 1bbc b88f e2bc
000003f0: 5941 013e 048a 73bd 0482 f0bd 5006 1ebe
-0.2728017 0.022576286 0.0648919 -0.11741992 -0.040221576 -0.110363364 0.030253828 -0.15927747
-0.005168065 0.057002738 -0.22540933 0.18300928 0.027425839 -0.091595106 -0.10547652 -0.26587698
-0.0020055159 -0.031778865 -0.1411096 0.07370303 -0.11292823 -0.059611924 0.0028861365 -0.03570488
-0.0926576 -0.09095126 -0.23501676 0.14006115 0.11672556 0.12728533 0.0711714 -0.10958685
-0.1301684 -0.25436595 -0.17053069 -0.24994913 -0.116449654 -0.20379502 -0.19524917 -0.060738698
-0.1586276 -0.046876077 -0.036478788 0.02203673 0.041558776 -0.01415571 -0.19983137 -0.037662756
-0.13471371 0.06185074 0.051823266 -0.1168527 0.039152466 -0.093107544 -0.09890747 -0.17519534
0.016669357 -0.15914102 -0.048675094 -0.074017525 -0.04911811 0.06327316 -0.018882224 -0.053612433
0.061381795 -0.14943567 0.0037381235 0.0529206 -0.022151131 -0.23669209 0.08801762 -0.16360997
-0.012404425 0.034409594 -0.055565067 0.010689617 -0.1726719 -0.0028043098 -0.09571415 -0.12528938
-0.13485405 0.0035484796 -0.2610975 -0.09711365 0.042703398 0.06322535 -0.088324785 -0.04561174
0.069011904 -0.16781658 -0.097448334 -0.15685524 -0.100645006 0.0112699615 0.037286118 -0.049525775
-0.034427267 -0.14605959 -0.11143065 -0.12372403 -0.058261067 0.0346278 -0.11311808 -0.121521
-0.25765812 0.002107217 -0.15693842 -0.24582599 -0.0012053784 -0.013495227 -0.10867134 -0.029062886
-0.21480076 0.07567426 -0.177553 0.09619683 -0.045182396 0.08582153 -0.011456884 -0.028399132
-0.06349218 -0.03472477 -0.075960435 -0.04228872 0.117597334 -0.050332792 -0.17693423 -0.15123789
0.02837885 0.035134327 -0.25090137 -0.17728765 -0.19253032 0.016202804 -0.10045277 -0.048476536
-0.15199687 0.031486217 -0.06567379 -0.06141857 -0.022705294 0.11939836 -0.17098966 0.094038635
-0.16142091 -0.3101191 -0.043278284 0.1421012 -0.076022156 0.038149998 -0.010885746 0.029547049
0.011553329 -0.18275428 -0.21532302 -0.1340856 0.013191132 -0.04810044 -0.1280514 -0.20641513
-0.0095077595 -0.046995185 -0.20947717 0.01107567 -0.11214206 -0.23770824 -0.0536967 -0.05416645
-0.25373605 -0.10770585 0.028117847 0.045464944 -0.09130741 -0.11729143 -0.11209216 -0.15456666
-0.05895641 -0.028806629 0.023012165 -0.12256588 -0.036880862 -0.27350247 -0.10783912 0.025823
-0.014011521 -0.15487838 -0.21771014 -0.09896954 -0.16768572 -0.060430653 0.120805316 -0.08032573
-0.08989221 -0.1383251 -0.10371318 -0.07996488 -0.06824082 -0.20797826 0.11001278 -0.16753213
0.069547966 -0.07686115 -0.068231866 -0.0014013683 -0.046057187 -0.03967173 -0.14664145 -0.16439675
0.049677666 0.025650375 0.043112062 0.07478992 0.025904445 0.071569085 -0.1242306 0.027761677
-0.020204995 -0.08622476 0.028684668 -0.18618335 0.00029625927 -0.23344493 0.0409183 -0.061199944
-0.026722927 0.072613835 0.01977218 -0.17695884 -0.053038064 0.09099882 -0.19411436 -0.03911033
-0.20147057 -0.016205812 -0.028799472 -0.06697059 -0.03588249 0.16861466 -0.050673515 -0.15862642
0.09956923 -0.06570544 -0.019924717 -0.022670547 0.004184588 -0.19387856 -0.0408683 0.082542345
-0.03211003 0.0075682793 -0.009513802 -0.027656421 0.12622584 -0.059457794 -0.117435485 -0.15432096

fc2.weight f4 [256, 512]
00000000: f8d2 90bd 41bd 163e 5d09 d63d 0920 88bc
00000010: a4a4 21be 1022 1cbe 622e e7bd 4044 e7be
00000020: c4c5 c4bc ee56 c4bd 9b39 efbd 6de7 e6bd
00000030: 6ff4 b4bc cbec b9bd fb25 af3d 3742 983b
00000040: 08de 133b 2da5 36be 0465 9ebd 1d1a 0bbe
00000050: b6c3 66bc 1c60 09be 993c bd3d b2f2 193e
00000060: f072 95bd ab1a 1ebe ca1f 06bc 1b9c 0fbc
00000070: ddef a03d 8f23 cd3a c697 aabe da3e 7f3c
00000080: d607 f83d 07b5 e1bc f0ff e23d a259 17be
00000090: 408a b83d 32b7 633d ef97 e5bd bf1b 1fbe
000000a0: c345 423e 7104 b2be 540e 943d 6dac 98bb
000000b0: aa4b 123d 3028 54be b916 c33d b9d0 08be
000000c0: 0970 3bbd 87f8 3cbe 6f26 b7bd 21da 32be
000000d0: 91dd ce3d 615a 923c 442f 54bd c369 cfbd
000000e0: 0885 d23c 69af f0bd 8c03 1ebe 12a2 c5bd
000000f0: 4f1b adbd 96ef 8fbc 34d2 903d 6755 473e
00000100: e313 9e3d 6ab7 48be 695b b23d 3640 c73d
00000110: 08ea 84be 063a bbbd 859d 133d 8f92 cebd
00000120: d0ac 83bc a51c 323d 6927 40be b4cb 25bd
00000130: 07f6 8dbe 209d d0bd 95bc 33be 923d b5bd
00000140: f748 55bd 5bcc 05be fd1c afbd 85e6 b43c
00000150: 4ab4 d53d fb64 1dbd daaf 6cbd 75f3 e33c
00000160: 57ff 51be 0dac b23d 6e31 54be a155 cfbb
00000170: 3350 893e 63f5 26be 7672 bd3d 3cf3 87be
00000180: 09aa 46be 371c 2bbd 5d56 d7bc 7eea 04be
00000190: ebe3 5f3e 41a5 373b a17f 36be b0d3 46be
000001a0: a082 bd3d 0e26 8bbd b864 1b3d 4be4 a0bd
000001b0: 82ce 04bd c03d c33d b5d3 74be 2d1a 523c
000001c0: ac95 02be ab86 22be fa9e 80be 34ec 2c3e
000001d0: 62c1 c9bd 857a 36be bcd0 c0bd 4042 903d
000001e0: 952b c0bd 2009 a2bd 22b5 f53c aa40 243c
000001f0: 1941 a93d 9f76 42be 43ba 69bd 01a6 303d
00000200: 3cd1 fdbd 017c d1bb c3a3 c3bd 5012 3bbe
00000210: 327e edbe 52ad 943d 05f9 003e 55d3 553e
00000220: 1a14 623e def4 31bb 2124 29bd 5eaa 08be
00000230: 1b60 a6be 41b8 e23d 9879 0ebe 421c e5bd
00000240: f1d7 a6be 2ebe 41be af57 02be 0418 7b3d
00000250: 2223 cc3d b804 713c a75c 72bd 8aaa b2bc
00000260: e510 99bc 2d91 40be 0e0c bfbe fbbe e93d
00000270: 3712 29bd 11ef fd3c 25eb b93d 0aa1 27be
00000280: 22c0 503d 41de 02be a281 36be 6e40 ae3b
00000290: 4a4e 8d3d 3e33 863b f0bb ba3d 8cfc 3e3d
000002a0: 1e2c 36be b85d 4ebd a666 523c 9e8b b1bd
000002b0: 0a3c 013e 383a 823d 84db f63c b8f7 263d
000002c0: 2928 71bc 599b e03b 56eb 3abd 204a a1bd
000002d0: d7ce 5a3d d3d5 3cbd 2526 113e b1a1 fa3d
000002e0: 387e d3bd c468 1e3e 0bbe f4bb 2863 11bd
000002f0: c01e acbd 7680 b73c dc2b 163d f619 623d
00000300: ba19 41bd ee05 513e 712c dabe f86e bfbc
00000310: 7f9f 1bbe f7f3 64bd 5fd9 963d 1303 553e
00000320: 55c5 913d 94db ec3d b879 35be bbdc 9dbc
00000330: aef2 96be 7909 8c3a a873 a2bd 4a2e aa3d
00000340: 97f4 44be 75f2 203b 22d4 42be c114 f43d
00000350: ca6b 163e de7b 5bbd c2be 2dbe d8f4 e5bc
00000360: e0fb 59be f115 2dbe 1009 8bbd b7ec fd3b
00000370: 488e b43d c2c0 d5bd 7e8f 1ebe a4ae 3d3d
00000380: 8989 d8bd 2de1 06be b50a 373e f2d4 26be
00000390: 3dd4 39bb ef3a 97be 435c fd3d 7c48 28be
000003a0: 3091 0fbe 72e2 6d3b f30c 9dbd 3185 bfbd
000003b0: b570 0bbe f279 933c ea8f a8be fe2b f6bd
000003c0: c488 023e 1917 b63d 6be4 26be 001d a53c
000003d0: 25a1 043e fbe1 b33d a543 a9bc 9e89 873c
000003e0: 8fe6 b03d b917 15be b2a9 dc3d 1bfe 6c3d
000003f0: bd10 75bc a23e 5abe b988 653e 6aa0 823d
-0.07071489 0.14720632 0.10451005 -0.016616838 -0.15785462 -0.15247369 -0.11288144 -0.45169258
-0.024020083 -0.09586893 -0.11680909 -0.1127461 -0.022089211 -0.09078368 0.08552166 0.0046465653
0.002256276 -0.17836447 -0.07734111 -0.1358418 -0.014084747 -0.13415569 0.09240074 0.15033987
-0.07297313 -0.1543986 -0.00818629 -0.008765246 0.0785825 0.0015650856 -0.3331892 0.01557895
0.121108696 -0.02755214 0.110839725 -0.14780286 0.09010744 0.05559463 -0.1121062 -0.15537928
0.18971924 -0.34769014 0.072292954 -0.0046592266 0.03571669 -0.20718455 0.095258184 -0.13360871
-0.045761142 -0.1845418 -0.089428775 -0.17466022 0.10100854 0.017865362 -0.05180289 -0.10127594
0.0256982 -0.11752207 -0.1543104 -0.09650053 -0.08452474 -0.017570298 0.07071343 0.19466172
0.07718637 -0.19601217 0.08708841 0.09729044 -0.25959802 -0.091419265 0.036038894 -0.100865476
-0.016073614 0.04348435 -0.18765034 -0.04047747 -0.27726766 -0.10186219 -0.17552407 -0.08849634
-0.052071538 -0.13066237 -0.08550451 0.022082577 0.10434778 -0.03842638 -0.057784893 0.02782605
-0.2050756 0.08724222 -0.20721981 -0.0063273464 0.26819 -0.16304545 0.09250347 -0.2655276
-0.19400801 -0.041774955 -0.026286298 -0.12980077 0.21864288 0.0028022083 -0.17822124 -0.1941669
0.0925343 -0.06794368 0.03793785 -0.078560434 -0.032423504 0.09533262 -0.23908885 0.012823624
-0.12752408 -0.15871684 -0.2512129 0.1688698 -0.09851338 -0.17820175 -0.09414813 0.07043886
-0.093833126 -0.07911897 0.029993597 0.010025183 0.082643695 -0.18990563 -0.0570624 0.043127064
-0.12393424 -0.0063929562 -0.095527194 -0.18268704 -0.46385342 0.07259621 0.12594993 0.20881398
0.2207798 -0.002715401 -0.04129422 -0.1334624 -0.32495198 0.110703 -0.13913572 -0.111870304
-0.32586625 -0.18920204 -0.12728761 0.0613022 0.099676386 0.014710598 -0.05917039 -0.021809835
-0.018684814 -0.1880538 -0.37313884 0.1141338 -0.041277137 0.030997785 0.090780534 -0.16370025
0.050964482 -0.12780096 -0.17822888 0.005317739 0.06899698 0.004095464 0.091178775 0.046627566
-0.17790267 -0.050382346 0.012841856 -0.08669208 0.1262056 0.063587606 0.03013397 0.040763587
-0.014719048 0.0068544564 -0.04563459 -0.07875466 0.053419914 -0.046102356 0.14174707 0.122378714
-0.10326809 0.15469652 -0.007468944 -0.035494953 -0.084043026 0.022400122 0.03666292 0.05520054
-0.047143675 0.20412418 -0.4261203 -0.023368344 -0.15197562 -0.055896726 0.07365679 0.20801954
0.07117716 0.11565319 -0.17722213 -0.019270292 -0.29482025 0.0010683975 -0.07932216 0.0830961
-0.19233929 0.0024558578 -0.19026235 0.11918021 0.14689556 -0.053584926 -0.169673 -0.028070852
-0.21287489 -0.16902901 -0.06788838 0.007749166 0.088162005 -0.10437156 -0.15484425 0.04630913
-0.10573108 -0.13171835 0.17875178 -0.1629217 -0.0028355264 -0.2953715 0.12371113 -0.164339
-0.14020228 0.0036298302 -0.076684855 -0.09351576 -0.13617213 0.018002484 -0.32922298 -0.120201096
0.12747484 0.08891124 -0.16298072 0.02015543 0.12952097 0.08783337 -0.020662138 0.016545113
0.086377256 -0.1455983 0.10774554 0.05785952 -0.014957604 -0.21312955 0.22415437 0.06378253

fc2.bias f4 [256]
00000000: 3470 a3bc 141e c83c 8529 cfbc 48e2 5a3c
00000010: afd7 6ebd f9d0 8dbd c21d 45bc f335 06bb
00000020: ac95 23bd 5793 d03c 9f50 e1bc b35e 33bb
00000030: acfd 10bd 9377 33bd be45 41bc 8c32 0cbd
00000040: a6e1 1fbd 773c 063d 9177 b73d cd14 35bc
00000050: 35e0 a43d c460 933d c4fe 90bc 5926 bcbc
00000060: abcc 35bd 8237 96bc 9846 63bd 41e5 29bc
00000070: e3fa f1ba f5e1 f3bc 4028 9dbd 9b21 44bd
00000080: 0223 d93d d550 98ba 1632 87bd e346 eebd
00000090: 455f 4fbd a582 a83b c30d 19bc dceb d73b
000000a0: 339b b7bd 548a 5dbd a0cb 2f3d ad4a 2abd
000000b0: baf5 57bd 5850 cdbc 574c 6e3c 791b 0fbd
000000c0: 8052 04bc 55a2 ea3c 4776 d63b 3e77 da3c
000000d0: 1d04 b83c a6bf f7bc c883 d83c 5f88 66bc
000000e0: 2987 0e3c 6772 58bd a9d8 2bbd 2c95 1e3c
000000f0: abd1 11be 1f0d d73c 9d21 833c d05c 62bc
00000100: e785 0fbd f1c7 98bb 8bae a53d d9e8 623d
00000110: 356e 7c3a 0022 aebd d441 1a3d 389e 1c3c
00000120: 0fa1 4c3d d00f e93c d31e 28bd 9279 5d3d
00000130: a3e7 efbb fb19 a4bb 3082 83bc 3ef0 99bb
00000140: 199b 8ebd 356b 24bc 0bbe 89bd f180 cabd
00000150: a14e 683d d0c3 133d 4f8b 51bd 279b 283c
00000160: 1f05 9bbd 8ae9 bdbc e543 20bd b358 22bd
00000170: 14cb 3cbd 04b3 9e3b 6335 463c 5e78 eabc
00000180: f8f0 4fbd 7b2e 70bd 5277 37bd 14d7 32bd
00000190: c0c1 15bc a92f 42bd f8f3 0ebd c84b e1bd
000001a0: 49e8 aabd 427c 533c af77 63bd 1ec2 bfbc
000001b0: 1cd0 563d 13e7 673d b87e 01bd 1934 7fbd
000001c0: c631 47bd 619d 6a3d a420 66bc 1eb3 043c
000001d0: 5d88 1e3d dc7a 88bc d69c 8abd cc6e 53bc
000001e0: d348 193d 1e6f c1bd 975e 0dbc c784 c23c
000001f0: b5f3 10bd 674e a1bd 8162 f63c 91f8 be3c
00000200: 0b76 78bd 5dc7 25bd 37f6 1ebd 0d51 90ba
00000210: d649 abbc b3c0 f2bc c935 aabd 6959 64bc
00000220: f39f acbc 7538 773d e095 f9bb db25 a8bd
00000230: 0a45 5dbd 281b 99bd 4122 ddbc f593 9abd
00000240: 2cff d53c d417 843c 9c1b 0ebd 1867 ac3b
00000250: 1e6c e0bd dfc8 97bc cd98 0cbe cbce 49bd
00000260: 224b 9bbd b4be 35bd aa38 6cbd 2b2d 2e3c
00000270: 41d2 723d 0987 89bd 0abf 9bbc 80f8 a0bd
00000280: f867 163d 8303 203c 4328 723d 178f b63d
00000290: 58c3 2f3c 69bd 05bd 272d 183d b05f a8bc
000002a0: fd8e a6bd f4d8 09bd 5f17 27bc 2049 9b3c
000002b0: d3ef 4a3b 17d3 363d 269b 25bd e2e9 95bc
000002c0: 94d0 84bd c61b 06bd 8654 abbd f471 5cbd
000002d0: eeac 1cbd 85b7 b6bd 78bc 6d3d e32d 60bd
000002e0: bbc1 03bc 232e 24bd a468 d7bb 277b a3bc
000002f0: 5580 153d 3454 5cbd ef9e edbc 8d4b 57bd
00000300: 9146 9cbd 461e f2bd d777 d43b 432e 92bd
00000310: a18f 103c 6311 77bd 0408 3bbd 1279 e1bb
00000320: df8b aebd b3b5 0cbd bdc4 c93a c93d bdbc
00000330: 4196 dcbc 0af5 6d3d 3aa8 e33c d482 55bd
00000340: 0a98 06bd f337 2abd 14fa 8dbd a474 4fbd
00000350: 2d57 62bd c2e8 bd3d 667f 36bd a9dd 33bd
00000360: 3e6e 08bd 31e2 9ebc 134d 30bc 85fb 54bc
00000370: ff17 073b 831d 67bd 0b06 98bc f6cf 07bd
00000380: f6d3 55bd 555c 893c 9fc4 58bd 8669 94bd
00000390: ab3c f13c 57da 89bd 3168 19bd 4f42 9cbc
000003a0: 2e09 b6bd a9d5 9abd f5da d73c 28d4 643d
000003b0: 5e2d 33bd a459 343d da02 77bd 2a18 3c3d
000003c0: 887f 3dbd ddd0 7bbd e685 823c ecf0 89bc
000003d0: d51f 80bd d090 8f3c 2559 38bc a2ea 113c
000003e0: 4483 8bba 014f 99bd a29d cabc ac64 af3c
000003f0: e786 07bd 9f06 0cbc 5e30 9c3c 7762 d6bc
-0.019950964 0.024428405 -0.025288353 0.013359614 -0.05831116 -0.06924624 -0.012031021 -0.0020478934
-0.03993766 0.025460882 -0.027504263 -0.0027369678 -0.03539817 -0.043815207 -0.011796413 -0.034227893
-0.039033554 0.032772508 0.08958352 -0.011052323 0.080505766 0.07196191 -0.017699607 -0.022967504
-0.04438464 -0.018337015 -0.055487245 -0.0103696 -0.0018461611 -0.02977083 -0.07673693 -0.04788361
0.1060238 -0.001162077 -0.0660135 -0.11634614 -0.050627965 0.005142527 -0.00934166 0.006589396
-0.08965149 -0.054086998 0.0429188 -0.041575123 -0.052724577 -0.025062725 0.014544568 -0.03493831
-0.00807631 0.02864186 0.0065448615 0.026668187 0.022462899 -0.030242752 0.026430026 -0.014070599
0.008699217 -0.052843478 -0.04195467 0.00967912 -0.14240138 0.026251374 0.016007239 -0.013816074
-0.03503981 -0.0046625067 0.08089932 0.055397842 0.0009629459 -0.08502579 0.037660435 0.009559207
0.049958285 0.028449923 -0.04104502 0.054071017 -0.0073213144 -0.00500798 -0.01605329 -0.0046978286
-0.06963176 -0.010035326 -0.06725701 -0.09887875 0.05671561 0.036075413 -0.051158246 0.010290897
-0.07569336 -0.02318265 -0.03912725 -0.03963537 -0.046092108 0.0048431177 0.012097689 -0.028621849
-0.050766915 -0.058638077 -0.044791527 -0.043662146 -0.009140432 -0.047408734 -0.034900635 -0.11000782
-0.08345086 0.012908043 -0.05553406 -0.023407992 0.052444562 0.056616854 -0.03161499 -0.062305544
-0.048631452 0.057278994 -0.014045868 0.0080993455 0.038704265 -0.016660146 -0.06768195 -0.012904834
0.037422966 -0.09445022 -0.008628509 0.023744954 -0.035388667 -0.07876282 0.030076267 0.023311885
-0.06065945 -0.04047333 -0.038809028 -0.0011010483 -0.020909231 -0.029632902 -0.0831104 -0.013937333
-0.021072363 0.060356576 -0.0076167434 -0.08210345 -0.05402092 -0.07475883 -0.026993873 -0.07547752
0.026122652 0.016124643 -0.0346943 0.005261313 -0.10958122 -0.0185284 -0.13730164 -0.04926948
-0.0758269 -0.04437132 -0.057671227 0.010630886 0.059282545 -0.06715209 -0.019011993 -0.078598976
0.036720246 0.009766462 0.059120428 0.08914011 0.010727726 -0.03265134 0.037152436 -0.02055344
-0.081327416 -0.03365417 -0.010198443 0.018955767 0.00309657 0.044634905 -0.040431164 -0.0183
-0.064850956 -0.03274133 -0.08365731 -0.05381961 -0.038250856 -0.08921722 0.058041066 -0.05473126
-0.008041794 -0.040083062 -0.0065737534 -0.019956185 0.03649934 -0.05379124 -0.02900645 -0.052562285
-0.07630647 -0.118221804 0.0064840126 -0.0713773 0.008823306 -0.060319316 -0.04566194 -0.006880888
-0.08522772 -0.03435297 0.0015393716 -0.02310075 -0.026927115 0.058095016 0.027790178 -0.05212672
-0.03285984 -0.041557264 -0.06932464 -0.050648347 -0.05525892 0.09272911 -0.04455509 -0.043912563
-0.03330826 -0.019394966 -0.010760563 -0.01299942 0.0020613668 -0.05642463 -0.018557569 -0.03315731
-0.052204095 0.01676766 -0.052921887 -0.072466895 0.029447874 -0.06731098 -0.03745288 -0.019074587
-0.0888847 -0.07560284 0.026349524 0.05586639 -0.043744437 0.0440308 -0.060305454 0.045921482
-0.0462642 -0.061478484 0.015932988 -0.016838513 -0.062560715 0.017525107 -0.011251722 0.0089060385
-0.0010643979 -0.07485772 -0.024733368 0.021410309 -0.033087637 -0.0085465005 0.019066032 -0.026169999

fc3.weight f4 [128, 256]
00000000: 4862 85bd d282 13be ace6 0dbd 62b1 ddbe
00000010: 036e 9c3c 8feb 043d 56a5 39be 1e50 62bd
00000020: bc1a a93d 6c44 16bd 67cc eabc 7c4e 1dbb
00000030: 8b1c f9bc e5d3 77bd 9a33 7abd c261 a7bc
00000040: 5907 a43c c6e2 41bc 5457 45bd 93ef 5f3c
00000050: 38df 35bd a592 9abd f1f6 10bc f378 8c39
00000060: c4fe 443c f319 f8bc c663 543d e8ee 24bd
00000070: 0294 c93d 1064 04bc 60e6 37be b52f f53d
00000080: de12 353d 21ef e03d 144a 3abc 2cf7 de3c
00000090: 18a8 1abe 21a9 15be 06e8 6dbd b74f 463c
000000a0: aba0 cf3d 71d3 23bd 2481 90bd 3522 093d
000000b0: d57d 5b3d 6874 88bd 6c3c efbb 4911 4c3c
000000c0: 6029 0f3c 6cd7 fcbe 29d4 a03d f6e0 83be
000000d0: 35f7 e83d c09a cfbd d94c 23bc 2594 43bc
000000e0: 8e4a 89bd 86b8 5abc 0e2a 5ebc 5f12 22be
000000f0: ca2d c33c 9201 01be 0309 713d bce1 50be
00000100: 542d f6bc 5b53 9ebd 6001 743c 757c 26bc
00000110: a8dd f93c 96de f5bd 7c75 7c3d 7a7d 6ebd
00000120: 3742 7a3d e579 32bb 08c4 19be 02a0 8cbd
00000130: c017 41bc cdd6 453c d847 47bd d0b4 653c
00000140: 2c4f b6bb b6cf 043d c21f 8cbd f50d 5cbd
00000150: ff15 8dbc d691 fbbd 95ec 93be 94a6 653c
00000160: cd64 57bd 3f4b 4e3c fac8 2fbc 6b18 d33c
00000170: e3ae ccbd fb1f 943c 4751 d0bd 8dda d5bd
00000180: 769b 1f3d 8f3e 133d 0a02 ae3c f981 8b3e
00000190: d98d 8d3b faee ad3c c80a 89bd caa9 913d
000001a0: 2e81 5b3d f567 6cbd 849f 23bd 0d70 463d
000001b0: 896e 4cbd d330 7fbe edf4 eebc 663e 04bd
000001c0: 04a2 5dbb 2a22 57bd efbe aa3c fb2b 41bc
000001d0: 1890 f6be d911 3dbe c06b d5bd b044 c5bc
000001e0: 5f4c a3be b594 5fbd 2376 94be d961 a5be
000001f0: 92a0 9dbd 5507 02be a752 8abb efd7 e337
00000200: edef 8f3b 1e6c 533e 4b97 0bbe a116 62bd
00000210: 463a 99bc 29c5 bf3c 6a54 b6bc d8ce ae3c
00000220: 9c83 6d3d a3f7 35be 6073 c8bd db96 bc3c
00000230: af46 cd3c ec31 d7bc 05ec 03be 702d e23c
00000240: 55bb a93b 70ed 303b 2882 77bc f220 6bbe
00000250: 626d 893c f45c 013d 2b08 85be a316 1e3d
00000260: 15b0 643d 1894 2abc 0d81 143e 5fde 96bc
00000270: 23b5 d5be f155 133c 1aae 8abc e26a 02be
00000280: 2170 c0be da1d 08bd 59b2 aa3d df3f 333d
00000290: fecd 3bbb d32b 113d 8c51 b7bd 8739 f23c
000002a0: 1364 5a3c 1829 613d 838a 353d 4764 bfbd
000002b0: 505f cf3b 7820 cdbd 6a39 6cbd f970 c1bc
000002c0: d0f8 4c3d a883 b9be 2e6d d2bc a3c6 ec3b
000002d0: 0310 d73c 313a 22bd 4e0d b9bc 1d66 29be
000002e0: fc95 eebd 3317 debc 8842 913c a1c1 0c3d
000002f0: 4ff9 14bd ac43 18bd 4806 41bb 2433 cc3c
00000300: 1fe6 4b3d 0568 df3d c4ea f83c d34e c2bc
00000310: 6330 97bd 0f09 373e 420b 7f3d c174 fc3c
00000320: 670b 0d3a 4538 873d 6125 d53c b090 23bc
00000330: 829b 78be 6518 e1bc 6ffd 0d3e 3b8d 803d
00000340: cf0b 0a3d cd8c 413d e46d d73c 6e0e 093c
00000350: 1392 413d 69ab aebd 2635 60be 9082 563d
00000360: 1243 03bc ac05 e0bd a47b 523d 20df b1bd
00000370: 0ad8 68be e983 21bd eb42 4dbe 6f05 4bbd
00000380: 2387 0fbc 9828 0dbd 6cd2 a3bd 1678 09bd
00000390: 371d 08bc b262 f83c a1be 193d aceb 213c
000003a0: b45c a5bc 9606 f4bd 9511 9fbd b869 07bd
000003b0: bb89 45bd 38e4 babd 1dc0 a8bd 133f 11bc
000003c0: ef72 cfbc 0a93 26bd ef7c b43b 8b56 9f3c
000003d0: 58e0 ccbc 5427 29bd 122c f53d 0eea 8f3d
000003e0: 4b22 d3bd 811f 323c b2ec fe3d 23df bc3c
000003f0: aaf1 013c 00fa 55bc 8dd7 8e3d ea7a 06be
-0.06512886 -0.14405373 -0.034643814 -0.43299395 0.019095426 0.03245121 -0.18129477 -0.055252187
0.08257052 -0.036686346 -0.02866192 -0.002400308 -0.030409118 -0.060504813 -0.061084367 -0.020432357
0.020023035 -0.011833852 -0.048178986 0.013667959 -0.04440233 -0.075475015 -0.008847938 0.00026792995
0.0120236315 -0.030285811 0.051852964 -0.0402669 0.098426834 -0.008080497 -0.17958975 0.1197199
0.044207446 0.1098311 -0.011370201 0.02721747 -0.15103185 -0.14615299 -0.058082603 0.012103966
0.10138067 -0.039996568 -0.070558816 0.033479888 0.0535868 -0.06662828 -0.007300904 0.012455293
0.008737892 -0.49383104 0.07852966 -0.2575757 0.11375276 -0.10136938 -0.009967052 -0.011937176
-0.06703673 -0.013349658 -0.013559831 -0.1582732 0.023825545 -0.12598255 0.058846485 -0.20398611
-0.030050911 -0.077307425 0.014892906 -0.010161509 0.030501202 -0.120053455 0.06163548 -0.058225133
0.061098304 -0.00272333 -0.15016186 -0.068664566 -0.011785448 0.012075138 -0.0486525 0.01402016
-0.0055636372 0.03242465 -0.06841995 -0.053724248 -0.017222403 -0.122836754 -0.28891435 0.014016766
-0.052586365 0.012591182 -0.010729069 0.02576848 -0.099942945 0.018081656 -0.101717524 -0.10442076
0.03896662 0.035948332 0.021241207 0.272476 0.004319888 0.021232117 -0.066915095 0.07112463
0.053589992 -0.05771633 -0.039947048 0.048446704 -0.049910102 -0.24920969 -0.029169524 -0.03228607
-0.0033818493 -0.052522816 0.020842997 -0.011790271 -0.4815681 -0.1846384 -0.10420942 -0.024080604
-0.31894204 -0.054585177 -0.2899638 -0.32301214 -0.07696642 -0.1269811 -0.0042212787 2.716106e-05
0.004392615 0.20646712 -0.13631932 -0.05519736 -0.018704545 0.023409443 -0.022257049 0.021338865
0.05798684 -0.17770247 -0.09787631 0.023021152 0.025058119 -0.026268922 -0.12883003 0.027609557
0.0051798024 0.0026996993 -0.015106715 -0.22961786 0.01677579 0.031582788 -0.25982794 0.038595807
0.055831987 -0.010411285 0.14502354 -0.018416582 -0.4173976 0.008992658 -0.016928721 -0.12736085
-0.37585548 -0.033231594 0.08334798 0.043762084 -0.0028656716 0.035442185 -0.08951101 0.029568447
0.013329524 0.05497083 0.04432155 -0.09345298 0.006328501 -0.100159585 -0.05767194 -0.02361344
0.050041974 -0.36233258 -0.025686827 0.007225828 0.026252752 -0.039606277 -0.022589352 -0.1654286
-0.11649701 -0.027110672 0.01773192 0.034364346 -0.03637057 -0.037173912 -0.0029453207 0.02492673
0.049780007 0.10908512 0.030385382 -0.023719227 -0.07382276 0.1787455 0.062266596 0.030817391
0.0005380422 0.066025294 0.0260188 -0.009983227 -0.24278072 -0.027477453 0.13866208 0.062769376
0.033702668 0.04725342 0.026297517 0.008365257 0.047258448 -0.08528788 -0.21895275 0.052370608
-0.008011596 -0.10938582 0.051387444 -0.08685136 -0.22738662 -0.03943244 -0.20045058 -0.04956573
-0.008760246 -0.03446254 -0.07999119 -0.03356179 -0.008307747 0.0303205 0.037535314 0.009882849
-0.020185806 -0.11915319 -0.077670254 -0.033059806 -0.048227053 -0.091255605 -0.08239768 -0.008865136
-0.02532336 -0.04066757 0.0055080573 0.019450447 -0.02500932 -0.04129727 0.11971296 0.07027064
-0.10309275 0.010871769 0.1244749 0.023055619 0.007931152 -0.013060093 0.06974707 -0.13132825

fc3.bias f4 [128]
00000000: 450a 56be f0c4 a2bd 72a0 f8bd be00 e5bd
00000010: 9b5c 96bc 69f3 843d c53d 93bd 4afe 333d
00000020: a04a 28bd bea0 54bd 950e ef3b 3b00 4a3e
00000030: 30dd 9f3d 2a29 5b3d 03e6 16bc a323 163e
00000040: db6f 91bd 12df 95bd 2a30 7ebc d276 a1bd
00000050: 53c8 1c3d b953 18bd 3a38 b3bd f8b5 e6bc
00000060: 414e 68bd f3ce 433e 5d35 a5bd 3ac1 ccbd
00000070: c0e1 b03a a57b c5bd 406b d2bd 7937 26be
00000080: 4d34 91bd 15b6 cdbd 6229 80bc 4335 e1bc
00000090: c08c 03bd 7b73 243e 3dae 0e3d ad18 163e
000000a0: 400c c1bc 993a 2dbd ff1f 03be 01a4 e7bc
000000b0: 9301 4fbd 9d2a e53a 944b 91bd e9ac 22bb
000000c0: ddc5 11bd 2004 bdbd 2d4a a53b 3db6 303b
000000d0: 87bc 253e 8dc7 84bc 48f4 aa3d c459 acbd
000000e0: 369e 6e3e 1026 e738 eb81 20bc dd5e 983c
000000f0: ece9 f0bc 1097 e9bd 1a41 3dbd f35f f4bd
00000100: 9ad7 063e 7499 43bd 1727 05be 18f5 19bd
00000110: 7409 e5bd 4998 03bd 2cef 803d 0c62 8abd
00000120: 3124 d43d 587f bbbc a919 2cbe e76a 473d
00000130: b791 a9bd c520 45bc a2d7 99bd 8e12 48be
00000140: 0f9e 6bbd 22ac 3abd b140 c7bc 2daf 32bd
00000150: 735c 86bd c876 bbbd 05e2 1a3e 48df 923d
00000160: ddef ffbc 5923 8fbc 2159 65bb 5733 a4bd
00000170: 880f 7ebe 2a60 36bd f8b4 7abd 6c52 fbbc
00000180: cac7 24bd 030a bdbd ae39 1f3e 1938 7c3c
00000190: 3782 00bc 5bbb b33d 39fd 3d3e f294 d1bc
000001a0: 7693 d6bd bba7 ca3c 9c39 f03d 1384 3cbe
000001b0: 90d0 c9bd 3265 303d 6310 6abd d2f2 a03b
000001c0: d129 c7bd 93fc 92bd 02f4 0c3d 4a1d 273d
000001d0: 4707 01bd 4008 bcbc 4e37 14bd 12ee babd
000001e0: c1ec a7bd 50e9 dcbc c599 c4bc 0d52 103c
000001f0: 3087 c9bd 4e28 e73d 1eaf 01be da7e 61bd
-0.20902355 -0.07947719 -0.121399775 -0.11181782 -0.018354705 0.06491739 -0.07189516 0.04394368
-0.041086793 -0.05191111 0.0072954395 0.1972665 0.0780586 0.053506054 -0.0092101125 0.14662032
-0.07101413 -0.07317938 -0.015514413 -0.07883991 0.03827698 -0.03718922 -0.08750959 -0.028162941
-0.056715254 0.19121914 -0.08066819 -0.099977925 0.0013495013 -0.09642724 -0.102743626 -0.16232099
-0.07090054 -0.10044495 -0.015644733 -0.027491217 -0.03211665 0.16059677 0.034834135 0.1465785
-0.023565412 -0.04229221 -0.12805174 -0.028276445 -0.05053861 0.0017484013 -0.070944935 -0.00248223
-0.035589088 -0.092293024 0.005044243 0.0026964091 0.16185199 -0.016208434 0.08347374 -0.08415559
0.2330254 0.00011022028 -0.0097966 0.018599922 -0.029408418 -0.11405766 -0.046204664 -0.11932363
0.13168183 -0.047753766 -0.13003193 -0.037587255 -0.11183444 -0.032127652 0.062956184 -0.06756982
0.103584655 -0.02288787 -0.16806664 0.048685934 -0.08279746 -0.012031739 -0.07511832 -0.19538328
-0.057523783 -0.045574315 -0.02432284 -0.043624092 -0.06560602 -0.09153515 0.15125282 0.07171494
-0.031242305 -0.01747291 -0.0034995752 -0.08017605 -0.24810612 -0.044525303 -0.06120774 -0.03067895
-0.040229596 -0.09230425 0.15549347 0.015394234 -0.007843546 0.087759696 0.18553628 -0.025583718
-0.10477345 0.024738183 0.11729738 -0.18409757 -0.09854233 0.043065257 -0.057144534 0.004911759
-0.09724773 -0.07177081 0.03441239 0.040799417 -0.03150108 -0.022953153 -0.036185555 -0.091274396
-0.08199454 -0.02696672 -0.023999104 0.008808625 -0.09840238 0.112869844 -0.12664458 -0.055052616

fc4.weight f4 [64, 128]
00000000: 63c6 83bd ee44 1a3d be1e 7c3d a6f9 613c
00000010: 0e2a 933e 3ccf fdbd bfe4 b2bd fa70 a53d
00000020: 881e 89bd 6eaa c2bd cc8f 4bbd 7992 88bd
00000030: 4fba c43d 3987 b5bd e387 813d ec27 933d
00000040: 3285 a03d 1b7e 11be e9e0 a93d 458f 2abd
00000050: 5765 983d 70c3 91bd 36a7 7b3d c545 8c3c
00000060: a9e0 3fbd 5466 47bd 2a25 9ebd 7441 713d
00000070: 97d8 ba3c fca3 76bd 029f e3bc b448 163d
00000080: 2720 75bc bafa 333d 5f85 55bd de00 eabd
00000090: 159d 843d a665 3ebe 000c 34bc 95ac 88bd
000000a0: 8e5f 3c3d 8c00 7ebd 511d 68bc 3d67 9b3d
000000b0: cadd 4cbd 994c 503d 1f37 9c3c bfba f63b
000000c0: 7223 873d 60e2 db3b 51a1 9f3d 6749 353c
000000d0: eabb aeba 2a5f 1a3e 0dd1 e0bd 914e 84bb
000000e0: a05e e1bd fab8 a43c f75f 70bc 9bc1 bcbc
000000f0: e10a 8f3c 0882 66bd 9801 d53d f8a9 a13c
00000100: 0766 1cbe d5cc 32bd e6f7 8fbd 3b2c 623d
00000110: db81 ce3c dfc3 bb3c 334a f1bd b292 843d
00000120: 9134 0cbe 3ba4 09bd 5151 e9bc c1cf 213e
00000130: 9346 d23d 3ff6 7d3d e9a9 2d3c f5f0 abbd
00000140: f9a0 0c3e 10bc a13c 80b1 ab3b 44ef fcbc
00000150: de94 b33d 7fca d1bb d85f 323d 68fb 2e3d
00000160: 56e7 ba3d 70bc 073d 6ebd 933c 332d 933c
00000170: 71e4 a1bd 5b65 ebbc 43d3 28bd d37a 4b3d
00000180: dd05 e1bd a92a 04bd 073f 3fbc 2f46 983d
00000190: b75b 453d bdf5 343d 565e debc aadf 39bd
000001a0: a108 9fbd fa38 aebc 798b bebd 1e50 a63b
000001b0: 5a14 d13c d8bc 1b3c 3700 733c 6e48 9c3e
000001c0: d891 bd3d 2410 9ebd ff00 02be 56c1 b03d
000001d0: bfff 90bd 2ea2 6d3c b1a8 26bd cc78 9c3d
000001e0: c177 39bd 495c b8bd 57b0 7ebd 6201 7c3d
000001f0: 6f47 a13d 05bd 60bd 1f54 4a3d c57e 723d
00000200: 32f0 9ebd 092e e43a 4e94 4f3c 34b7 c83d
00000210: 97b3 33bb 3ba0 d7be c6fb a0bb ebb6 d43e
00000220: d356 71bb abd9 bcbc 1c2e 3f3c 3abf bd3d
00000230: a0d9 bd3c b7af ee3d 8c86 673d 6c1e 8cbb
00000240: 8794 a7be cf2c 34be 8004 d3ba 6af4 7f3c
00000250: c911 cc3d 149b f83d 001e c83c cac5 e53a
00000260: c7a1 0cbe 7664 22bd 4243 5e3e caf8 b5bc
00000270: ca75 d9bd cb37 af3c 4a21 76bd d00a c5bd
00000280: 418c 54bc 662d ecbc 869c 15be f6f5 23bd
00000290: a1c6 08be 89fa 043e c80a 11be b67d 803c
000002a0: 1815 70bb 1805 9a3d 9828 c33b b2bd ac3d
000002b0: 614e 4f3a 20c8 eebc f395 d3bd d466 843e
000002c0: 7a9c 233e c514 eebc 7d77 f5bb a5fa 34bd
000002d0: 90ca f3bd 9965 c33d b2c4 8abe 74ed 11be
000002e0: d57f 20bd e2ff b3bc ba2f e9bd 3953 dc3e
000002f0: 8f4f 7e3e 5760 1f3c 685d c2bc dbc3 3dbd
00000300: b68d 82be 42ab f33c 0917 e3bc 56d8 253e
00000310: fd4b 453d 0841 273e 264b f3bc 0a35 8ebd
00000320: 52e8 cdbd 15f6 9ebc cbf3 7abe c722 8abe
00000330: c712 7cbd adf8 34bd fb17 89bc 521d dcb8
00000340: c9d0 933d 45f2 6abb 35fc a33d 7e5d aebb
00000350: 1515 9cbd d10c b1bd f99e 403e 6a55 973e
00000360: 17ee 7d3d 0565 513d 93a4 963c 62a5 10bd
00000370: 2cf9 b4bd a1b0 71ba e6a8 d53c b230 033c
00000380: c5c8 3ebe 6337 74bd 504e 0fbc 00b7 11bf
00000390: 1c49 96bc 88b8 303e 5a89 b3be 45b3 373d
000003a0: 250d 843d c614 153e 630f e9be c690 9c3d
000003b0: a347 c1bc 3822 913e 282f d43d fe62 983d
000003c0: 54cd 00be c947 ddbc 460c 50bd acc0 123d
000003d0: 2d76 253d 7e9a a5bc 1236 37bd c581 afbc
000003e0: cb0a 883d aa2e 113d 88eb 20be 4e53 b1bd
000003f0: b36b a13d 5acc 8a3e 6e25 603d b049 06bd
-0.06434324 0.037663393 0.061552756 0.013792431 0.28743023 -0.123930424 -0.08735036 0.08078189
-0.066952765 -0.09505163 -0.049697682 -0.066685624 0.09605848 -0.08863682 0.063247465 0.07185349
0.07837905 -0.14208262 0.08294851 -0.04164054 0.07441204 -0.07117355 0.06143876 0.017123112
-0.046845112 -0.048681572 -0.07721932 0.05890031 0.022808356 -0.06021498 -0.027785782 0.03669043
-0.014961279 0.043940283 -0.052129146 -0.11425947 0.064752735 -0.18593463 -0.010989189 -0.066735424
0.045989566 -0.06201224 -0.014167146 0.075880505 -0.050016202 0.0508543 0.019069253 0.007529586
0.065985575 0.0067103356 0.077944405 0.011064864 -0.0013331149 0.15075365 -0.10977373 -0.004037686
-0.110043764 0.020107735 -0.014671317 -0.023041537 0.017461242 -0.05627635 0.104006946 0.019734368
-0.15273295 -0.043652374 -0.07029705 0.055217963 0.025208404 0.022920547 -0.117817305 0.064732924
-0.13691927 -0.033603888 -0.028481157 0.15801908 0.10267367 0.062002417 0.010599592 -0.08395568
0.13733281 0.019742996 0.0052396655 -0.03087581 0.087686285 -0.0064023132 0.043548435 0.04272023
0.09126155 0.033138692 0.018034663 0.017965889 -0.079049 -0.028734853 -0.0412171 0.04967768
-0.109874465 -0.032267246 -0.011672742 0.074352615 0.04818317 0.044179667 -0.027144592 -0.04537932
-0.07765318 -0.021267403 -0.09303946 0.0050754687 0.0255224 0.009505473 0.014831594 0.3052401
0.09256333 -0.07717922 -0.12695692 0.08630626 -0.0708003 0.014503999 -0.04068822 0.07640228
-0.04528022 -0.09001977 -0.06217989 0.061524756 0.07874953 -0.054867763 0.04939663 0.059202928
-0.07760657 0.0017408739 0.012669636 0.09800568 -0.0027420276 -0.42114434 -0.004912826 0.41545805
-0.0036825433 -0.02305301 0.011668708 0.09264989 0.02317506 0.11654609 0.0565248 -0.0042760875
-0.32730505 -0.17595218 -0.0016099364 0.015622238 0.0996433 0.12138954 0.024428368 0.0017530259
-0.13733588 -0.03964659 0.21705344 -0.022213358 -0.106181696 0.021388909 -0.06009034 -0.09621203
-0.012972892 -0.028830241 -0.1461049 -0.04002949 -0.13357021 0.12986197 -0.14164269 0.015684944
-0.0036633667 0.07520503 0.005955767 0.08434619 0.00079081027 -0.029148161 -0.10331335 0.25859702
0.1597766 -0.029062638 -0.0074910508 -0.044184346 -0.1190387 0.095408626 -0.27103192 -0.14250737
-0.03918441 -0.0219726 -0.11386056 0.43032244 0.24835037 0.009727559 -0.02372618 -0.04632936
-0.25498742 0.029744748 -0.027720945 0.16195807 0.04816817 0.16333401 -0.02969892 -0.0694371
-0.10054077 -0.01940445 -0.24507062 -0.26979658 -0.061541345 -0.04418247 -0.016735068 -0.00010495879
0.07217557 -0.003584997 0.08007089 -0.0053212037 -0.076212086 -0.08645023 0.18810643 0.29557353
0.06199464 0.05112173 0.018389022 -0.03531397 -0.08836588 -0.000921974 0.026081514 0.008007215
-0.18631275 -0.059623133 -0.0087466985 -0.5691986 -0.018345408 0.17257893 -0.35065728 0.0448487
0.064478196 0.14558706 -0.45519552 0.07644801 -0.02359373 0.2834642 0.10360557 0.07440756
-0.12578326 -0.027011769 -0.050792955 0.035828277 0.040395904 -0.02021527 -0.0447293 -0.021424184
0.066426836 0.035444893 -0.15714848 -0.08658467 0.0788187 0.27109033 0.054723196 -0.032785118

fc4.bias f4 [64]
00000000: 2adc f0bd 79e4 d13d 3ca6 b4bd 552c a13c
00000010: 175c 5a3e 8620 0c3e 3f63 ac3d e53c 38bd
00000020: 0b7a 963d 6ceb b63d 559a 283e 14c1 7c3b
00000030: 9ce1 0fbe d8dd 0d3e afaf 69be c9a5 713e
00000040: 51d5 9ebd 3096 773c c02a 12bd a88f d23d
00000050: 4a88 563e 60fc aabc 1678 33bd 3e00 c33d
00000060: d820 c4bd 9bea 003d 5567 bf3d 75af c43c
00000070: ac00 fabd 94af 853e d830 1e3e 2038 033d
00000080: 3a70 4b3e 886c ca3d e819 633c 8798 883e
00000090: c91c 18be 7b92 ffbd af73 f5bd 660d ecbd
000000a0: 3143 f33e 783f 953e 3b1e dfbd 52bb 483c
000000b0: 771f c4bd b8ac cebd f200 7dbe 2ecc 29bd
000000c0: 9369 913e 52b7 2b3e 419c 353e 193d 233e
000000d0: 826a 68bc 0832 84bd e4eb 913b a3b7 6b3e
000000e0: e34c 803d 8082 e73c a25c ebbc a101 873d
000000f0: f452 d13c d526 743c ec99 663d a091 933d
-0.11760743 0.10248656 -0.08820769 0.01967446 0.21324192 0.13684282 0.08417367 -0.04497995
0.073474966 0.08931622 0.16465123 0.0038567232 -0.14050907 0.13854158 -0.22820924 0.23598398
-0.077555306 0.015111491 -0.0356853 0.102813065 0.20950428 -0.020872295 -0.043815695 0.095215306
-0.09576577 0.031473737 0.09345881 0.024009446 -0.122071594 0.26110518 0.1544832 0.032035947
0.1986703 0.09883982 0.013861157 0.2667887 -0.1485473 -0.12479111 -0.119849555 -0.11525993
0.475122 0.29149985 -0.10894438 0.012251692 -0.09576314 -0.10091537 -0.24707392 -0.041454487
0.2840086 0.1676915 0.17735387 0.15941276 -0.01418555 -0.06454855 0.004453169 0.2301927
0.06264665 0.02826047 -0.028730694 0.065921076 0.02555225 0.014901836 0.056299135 0.0720551

fc5.weight f4 [32, 64]
00000000: 03ed 26bd bfc5 03be 904f a3bc 40ce aa3b
00000010: e2be a43d cd14 4b3e 01e6 903e d677 f0be
00000020: 2d67 3fbd f0ac a6b9 7e3a d4bb 03a6 acbc
00000030: 9f8c 67bc 9316 2bbc 3110 5bbe b878 d9bd
00000040: c931 34bc 597f ae3e 15c4 1e3e 8495 4a3e
00000050: def3 e83d b2e1 93bc 11df cdbc c360 a43e
00000060: 686b f83d 017b 423e 1b0e 813e 1664 02be
00000070: 9685 24be 93b7 023e 2c5e 6d3e 6d0a 863d
00000080: 33ee df3c 0421 6abe e31d 00be 8e8d b3bc
00000090: ecaf 8d3d ae1f 5abd 217b 37be 0282 45be
000000a0: 3d92 05be bb7e 4d3e 19e0 bc3d 04fe 1ebe
000000b0: 8352 323e abd2 03bd 3cd8 5dbd 7954 e2bd
000000c0: 1802 e0bd 9363 cabd b9bc ccba 86df 443d
000000d0: 8c06 8b3b a5df b8bd 0520 0abc bd95 7d3e
000000e0: e3b4 d93c 24ce 003d 265c b13c b553 2b3e
000000f0: d97b b73d 7386 cebd 9888 b0be 8e6a f1bd
00000100: 7cac 4c3d c023 f0bb b2a3 f23d 00dc 51b9
00000110: 672f 86bd e018 f63a 30ee dcbd 0030 3d3b
00000120: 4c80 a1bd d083 eebd f4fe dfbd 4afe 83bd
00000130: ac78 6f3d 2815 383d c007 113b f164 20bd
00000140: 5c14 253d 145d 993d 9838 72bd 9ea6 b7bd
00000150: b69e 113d 78b0 bd3d a48e f73d 5888 c7bd
00000160: a0a9 f33d cc9e c6bd 64e8 b23d 97a7 05be
00000170: 6445 213d b072 92bd 744b 92bb 4ec8 cabc
00000180: f9dc 8c39 90a9 a8bd fea3 f73d 785e 88bc
00000190: 882c 02be 5873 c6bc 64f9 57bd c403 1d3d
000001a0: c41a 9cbc 392e 60bd b863 5dbd 88ff 413d
000001b0: f0bc 39bd a255 fc3d 60cc 0b3c 588b f0bc
000001c0: 9c43 adbd 3bbb 8e3d 30a5 0abc 8e01 a3bd
000001d0: a2c6 debd 82e7 fabd c4c7 a13d 1a3b 87bd
000001e0: 683f 86bd 9e33 203d 8072 e43c 7e2a b03d
000001f0: f0bf 57bc d7d1 86bd 384f 02bd 14a0 3ebd
00000200: e8c6 ac3c 29d1 04be 5c2e 51bd 5391 b7bd
00000210: 25c4 1ebe 682b 16be baae 8a3c ad84 babd
00000220: 27a6 4bbd f4b5 bd3c e756 973d ede1 39bd
00000230: fcf4 d03d b43c 3bbe e69a 2e3c b290 803c
00000240: 0405 bf3c ee2e e9bd 9be7 e23b 6b1d eabd
00000250: f955 00be 4835 6f3d 6eb9 e7bd 02f1 d43d
00000260: a885 1abd 9fda bebd b4bf 04be bcbb 3fbd
00000270: 70d7 e7bc 294c 06be 80a3 343d bf10 da3c
00000280: 27f1 973d fba1 e7bd 9a32 00be 8b2d f1bd
00000290: f698 e6bc de3a ba3c 2bb8 18be fd84 eabc
000002a0: 5043 853d 03e7 793d 20d8 353d b4bc 793d
000002b0: 1ee3 c63d 2e47 ddbd 8ce9 05be 47b9 f93d
000002c0: b12e 0abd 4ff1 31be ebb6 44bc 409a 933d
000002d0: 42f5 05bd 2d51 c0bd 8cec e6bd 99b4 adbd
000002e0: 5ece 13bb ec1a c6bd 71fd 85bd 81a8 bf3d
000002f0: b020 c13d b844 07bd cb25 4abd 8bd7 99bc
00000300: 4bf0 0b3e 0313 f33d 3546 69bd 961c 59bd
00000310: 6696 d93d 9c37 4ebb 60e8 013c aff6 223c
00000320: 563c cfbd f1d5 b9bd 450f 6f3e e7d2 8b3b
00000330: 972b e9bd 06da 01be 840a 1bbe c8ac 4b3e
00000340: 4f99 493b 8deb 453c 6954 47be aa89 5d3e
00000350: b2f2 193d 4fe5 c3bc db44 89be 09b1 ebbe
00000360: 0de1 103e a1a8 c3be 9d96 143e 129c 1e3d
00000370: ad53 18bf fe8b 823e ed98 9ebd 924b 65bd
00000380: 3f28 97be 1caa 8c3e 75e1 27bc c40d a53b
00000390: 36a4 35bd 5111 913d 8d26 433d 962e aebd
000003a0: 2a67 343e 8421 3b3d ee8b 083c 2981 86bc
000003b0: 2e86 09be 1aca a8bd 7df7 813d fbf9 d4bd
000003c0: 91e7 a13d 089c f83d aad8 1fbe 86a8 313e
000003d0: 84ee e03a 5ef2 04bf 0bc8 463e 38f8 c6bd
000003e0: d39e 803d 6947 a2bd 5add a63e b127 fd3d
000003f0: d051 813e 3b91 06bd 82fd 8b3e ed9d 333e
-0.040753376 -0.12868403 -0.0199354 0.005212575 0.080442205 0.19832154 0.2830048 -0.46966428
-0.046729255 -0.00031790836 -0.0064766994 -0.021075254 -0.014132648 -0.010442394 -0.21392895 -0.106187284
-0.010998198 0.34081534 0.15504487 0.19783598 0.11374639 -0.018051956 -0.02513078 0.32105073
0.12129861 0.18992235 0.25206074 -0.12733492 -0.16066584 0.1276534 0.23180455 0.06544957
0.027335262 -0.22864157 -0.12511401 -0.021918084 0.0691832 -0.05325287 -0.17918064 -0.19287875
-0.13044067 0.20067875 0.09222431 -0.15526587 0.17414288 -0.03218333 -0.054161295 -0.11051268
-0.10937899 -0.098822735 -0.0015620209 0.04806473 0.004242724 -0.09027032 -0.008430486 0.24764152
0.026575511 0.03144659 0.021650385 0.1673115 0.08959169 -0.10084238 -0.34479213 -0.11787902
0.04996918 -0.0073284805 0.11847629 -0.0002001375 -0.0655201 0.0018775724 -0.10787618 0.0028867722
-0.07885799 -0.11646235 -0.109373 -0.06444986 0.05846469 0.04494205 0.0022129864 -0.039158765
0.04030262 0.07488456 -0.059136003 -0.089673266 0.03555175 0.09262174 0.120877534 -0.097428024
0.11897588 -0.09698257 0.08735731 -0.13052212 0.039372817 -0.07150781 -0.004464561 -0.024753716
0.00026867518 -0.082354665 0.12091826 -0.016646609 -0.127123 -0.024224922 -0.05272807 0.03833367
-0.019055732 -0.05473158 -0.054050177 0.047362834 -0.0453462 0.12321021 0.0085326135 -0.02936332
-0.08460161 0.06969305 -0.008462235 -0.07959281 -0.1087773 -0.12251188 0.078994304 -0.066030696
-0.065550625 0.039111726 0.02788663 0.08601855 -0.01316832 -0.065829925 -0.03181383 -0.04653938
0.02109094 -0.12970413 -0.051069602 -0.08963265 -0.1550451 -0.14664996 0.01692902 -0.09107337
-0.049719002 0.023158051 0.07389622 -0.045381475 0.10202977 -0.18284875 0.010657048 0.015693996
0.023317821 -0.11385904 0.006924582 -0.11431392 -0.12532796 0.058400422 -0.11314665 0.10397531
-0.03772512 -0.093190424 -0.12963754 -0.046809897 -0.02830097 -0.1311499 0.04410124 0.026619313
0.07419043 -0.11310192 -0.12519303 -0.11776265 -0.02814911 0.022733148 -0.14914005 -0.028627867
0.065069795 0.061011326 0.044395566 0.060970977 0.09711288 -0.10804592 -0.13077372 0.12193542
-0.033735935 -0.17377208 -0.012006502 0.07207155 -0.0327046 -0.09390483 -0.112755865 -0.08481712
-0.0022553424 -0.09673104 -0.06542481 0.093583114 0.09430063 -0.03302452 -0.04935245 -0.018779537
0.13665883 0.118688606 -0.05695172 -0.053005777 0.10624389 -0.0031466251 0.007928938 0.009946509
-0.1011893 -0.09074009 0.23345669 0.004267085 -0.11385267 -0.12680826 -0.1514073 0.1989013
0.0030761545 0.012080085 -0.19465794 0.21634546 0.037584968 -0.023913054 -0.26810345 -0.46033505
0.1414835 -0.3821459 0.1451058 0.03872306 -0.5950268 0.2549743 -0.07744012 -0.055980273
-0.29522893 0.27473533 -0.010246624 0.0050370414 -0.044346057 0.07083381 0.047644187 -0.08504979
0.17617479 0.04568626 0.008334143 -0.01641901 -0.13430092 -0.08241673 0.06346033 -0.103992425
0.07905496 0.121391356 -0.15609995 0.17349443 0.0017160927 -0.5193232 0.19412248 -0.09715313
0.06280293 -0.07923777 0.32590753 0.12361086 0.2525773 -0.032853346 0.2734185 0.17540713

fc5.bias f4 [32]
00000000: 98be 423e 4af2 c0bd 61a1 a5bc de1c b53d
00000010: ccab c8bd b112 27be b460 acbd ccff 49bd
00000020: 6e79 1b3e b07b c63d 28c9 55bd b7fe 363e
00000030: 08f1 973d 3c14 a33e 9925 25be e03a 1c3e
00000040: 28f2 003e 3392 cdbd 5fa3 9a3e 6a91 0a3e
00000050: 74dd 453e 4ec2 8bbe 3e62 1fbe 4737 93bd
00000060: 66b3 39be d0dc 973d 3f11 9d3d ef59 723e
00000070: 8dfc 34be 9833 92bd c8b9 933e a77f 423e
0.19018018 -0.09421213 -0.020218553 0.088433966 -0.09798393 -0.16315724 -0.08416882 -0.049316213
0.1518304 0.0969156 -0.05219379 0.17870604 0.0741902 0.31851375 -0.16127624 0.15256834
0.12592375 -0.10037651 0.30202767 0.13532034 0.19322759 -0.2729668 -0.1556482 -0.07188278
-0.18134841 0.074151635 0.07669305 0.2366712 -0.17674465 -0.07138747 0.28852677 0.18994008
