policy.pth (torch_old, 787779 bytes, 17 tensors)

fc1.weight f4 [512, 37]
000000 05 9a 6e 3d 36 d9 90 3d 8f 5c 40 bd ef 6b cb be
       0.058252353 0.0707268 -0.04696327 -0.39730784
000010 69 e0 a8 be 2d 9c b0 3e 41 00 ad bc 20 a3 fa 3d
       -0.3298371 0.34494153 -0.021118285 0.12238145
000020 4b 40 9b be 3b 5d 6c be a5 5c ad 3d 7c c2 a8 bd
       -0.3032249 -0.2308244 0.08464936 -0.0824022
000030 a4 da 0a bd 6c 3d e4 be 25 46 09 bf 59 51 71 3e
       -0.03389992 -0.4457811 -0.5362266 0.23566188
000040 a9 56 5c 3c 41 dd eb 3d 10 7f fa be 4b 3f e3 bd
       0.013448396 0.1151681 -0.48925066 -0.110960566
000050 b3 c6 0d 3e 1a 23 29 3e 0a 37 98 bd c4 b0 8c bd
       0.13845329 0.16517296 -0.07432373 -0.06869653
000060 2e 9a 3d be 1c 77 1c 3e 6e 44 3c 3d 4b 93 4e be
       -0.18515846 0.15279812 0.045963697 -0.20173375
000070 ec 6c 33 3e 29 d1 c7 bd 2b bf 8a bb 35 87 b6 3d
       0.17522019 -0.09756691 -0.004234215 0.089125074
000080 02 fd a7 bb c2 34 46 bd df b3 b9 be c4 39 da bd
       -0.0051265964 -0.048390158 -0.36270043 -0.10655549
000090 22 71 3e be e8 d2 97 bd aa 30 32 3e 25 d2 b4 bd
       -0.18597844 -0.07413274 0.17401376 -0.088291444
0000a0 d9 3d 08 be 4b 14 6c bf c7 a1 54 be 6e f5 e1 bc
       -0.13304843 -0.92218465 -0.20764838 -0.02758285
0000b0 39 86 6b be 3f 2f d1 bd 58 43 d1 be 13 46 d0 3e
       -0.2300042 -0.102140896 -0.40871692 0.40678462
0000c0 b3 e2 90 be de f6 f2 bc 36 b0 ca 3d 97 f5 23 3f
       -0.28297958 -0.029658731 0.09896891 0.64046615
0000d0 45 e4 98 be 10 00 40 3e d7 c6 39 3e ec f2 db be
       -0.29861656 0.18750024 0.18142258 -0.42958772
0000e0 32 7d f0 be 0f 97 73 3d 3c fd 6a be 36 4a 94 be
       -0.46970516 0.059470233 -0.22948164 -0.28962868
0000f0 fe 6d bc 3e 89 25 36 3f f0 45 be be bf 97 73 3d
       0.36802667 0.71151024 -0.37162733 0.05947089
000100 f6 a1 5d 3e 64 d6 d6 be 1b 9b 4d bf f9 4a 7c 3c
       0.21643814 -0.41960442 -0.803148 0.015398734
000110 59 a3 c7 3d 17 19 a2 3d 4c f6 d8 3d 3c 79 1c 3f
       0.09747953 0.07914942 0.105938524 0.6112249
000120 a1 6a a3 3d 32 71 92 bc 66 76 7e 3e 0a e0 d2 3c
       0.07979322 -0.017876241 0.24849853 0.025741596
000130 a1 95 4e 3e 8c 6c a1 be 4b ac 9f 3c 5e 88 2b bf
       0.20174266 -0.31528127 0.019491335 -0.67004955
000140 e5 0c f9 bd 87 f7 10 3f 7a 8f d3 3d 0b 59 16 bf
       -0.121606626 0.56627697 0.103301 -0.5872962
000150 26 9b 68 bd 8f 68 bd bd 5c 1b 00 3d e6 3e 04 3c
       -0.056788586 -0.092484586 0.031276092 0.008071637
000160 d9 bb 63 3e 3c 1c 2d be 6d a3 bc 3d 12 c4 87 3c
       0.22239627 -0.16905302 0.092108585 0.016572986
000170 2a 58 a6 3e db 74 9b 3e 87 8e 9b be e3 37 1c be
       0.3248914 0.3036259 -0.30382177 -0.15255694
000180 a5 7b 72 3e 8c 5d 8b 3d fd 7c e5 bd 24 9e b2 bd
       0.23679979 0.06804952 -0.1120548 -0.08721569
000190 b1 39 b7 3d 9d 7f 54 3e 5d 94 39 be 6c 93 a4 3d
       0.08946551 0.20751806 -0.18123002 0.08035931
0001a0 c1 c3 ae be 58 89 a4 ba 7a d1 e5 bd 4a 1f 1e be
       -0.34133723 -0.0012553139 -0.11221595 -0.15441623
0001b0 e1 aa c7 3e 47 5a 5a 3e d0 06 b7 bb 88 99 6e 3e
       0.38997558 0.213235 -0.005585529 0.23300755
0001c0 0d a5 b7 be 5e 7f 35 3e 38 9c 0c 3e a7 af bc be
       -0.3586811 0.17724368 0.13731468 -0.36852762
0001d0 63 c8 a5 bd 54 f0 0f be 11 bd 06 bd 32 7d 54 3e
       -0.08094861 -0.14056522 -0.03289515 0.20750883
0001e0 c2 e0 90 3f b9 0d 30 bc a9 34 0b be 90 05 85 bd
       1.1318591 -0.010745459 -0.13594307 -0.064952016
0001f0 4f b6 ca bd 9c 77 0b be ab e3 08 be 65 0f c5 bd
       -0.09898054 -0.13619846 -0.13368098 -0.09622077
000200 53 74 9f bd 37 b5 86 be a9 32 5e be 1c 62 a6 bc
       -0.07785859 -0.2631013 -0.21699013 -0.020310454
000210 32 85 19 be 97 6c 72 bc 91 7a 31 3d 9b 79 d3 bd
       -0.14992216 -0.014796398 0.04332978 -0.10325929
000220 99 99 ca 3c b0 e0 aa bc f3 db 08 be 5f 05 38 3e
       0.024731444 -0.020859092 -0.13365154 0.17970799
000230 75 62 8b 3d f3 04 2f 3c c0 30 bd 3e 47 30 4e be
       0.068058886 0.010682332 0.36951256 -0.20135604
000240 a7 4a 64 be ed 50 9f be 9c b1 90 bd f2 83 4e 3c
       -0.22294103 -0.3111643 -0.07065126 0.0126047
000250 53 43 8b 3e a9 5b 88 be 59 c0 5e be 44 17 67 3c
       0.27199802 -0.2663243 -0.21753062 0.014104668
000260 70 27 db bc f0 db dc 3d d0 07 8b 3e 07 71 b8 be
       -0.026752204 0.10784137 0.27154398 -0.36023733
000270 4d 27 28 3e 5a 7b 6a 3e 98 ee 7c bd 73 84 1c 3d
       0.16421242 0.22898617 -0.06175098 0.03821225
000280 6e 60 15 bd ee 6e a1 3d de e2 e3 bc ae a5 e0 be
       -0.036468916 0.07882486 -0.02781814 -0.43876404
000290 bf 0c 49 bd 54 65 85 3e 86 10 de 3d 8d 72 e7 3d
       -0.04908442 0.2605387 0.10842995 0.11301146
0002a0 53 cb a6 be bf 9e 26 bd 17 54 1c 3f 65 f4 19 be
       -0.32577 -0.040678736 0.6106581 -0.15034635
0002b0 d2 9f 2f 3e e6 76 20 3c 08 7f d6 bc 30 dc d5 3e
       0.1715081 0.009793973 -0.02618362 0.41769552
0002c0 a3 da b1 be 52 12 04 bf 5e ce 5c 3e 2b 04 a7 be
       -0.3473712 -0.51590455 0.21563098 -0.32620367
0002d0 9a 6e 3f 3e d5 e4 06 3e 20 e9 af be c5 92 62 bc
       0.18694535 0.1317323 -0.34357548 -0.013828938
0002e0 c3 93 0f bd 86 29 9e 3e 46 03 2e be 10 5a 13 be
       -0.035053026 0.30891055 -0.16993436 -0.14389825
0002f0 da 1f 39 be a6 96 bb 3e 7c 2e 25 3e 85 5c 1e 3e
       -0.18078557 0.36638373 0.16131014 0.15464981
000300 09 68 62 be 94 43 ad bd a7 f6 35 bf 11 12 a8 be
       -0.22109999 -0.08460155 -0.71079487 -0.32826284
000310 87 8a 81 bd 03 88 20 3e 76 57 58 bc 8f cc 30 bd
       -0.0632525 0.15676884 -0.013204446 -0.043163832
000320 62 21 8c bd 19 91 6f 3e fb be 57 be 68 8b ab bc
       -0.06842305 0.23395194 -0.21068947 -0.020940498
000330 c8 7b 23 3e 85 3b 1d bd 8e d1 27 be cf 7c a5 3e
       0.15965188 -0.03838684 -0.16388533 0.32321784
000340 bf 00 83 3d 2b 07 d8 3d ef a7 4b be 9c ac 2d 3d
       0.06396627 0.10548242 -0.1988828 0.04240094
000350 96 8d 78 bd 50 0d 9e 3e 2a f0 53 3f bb c3 35 bd
       -0.060681902 0.30869532 0.82788336 -0.044376116
000360 8d 85 72 3d 95 28 24 be cd bf e6 bc 1b 35 21 bf
       0.059209395 -0.16031106 -0.02816763 -0.6297166
000370 6c 54 db 3d c6 22 0d 3d 81 e9 86 3d ea 08 f2 bd
       0.107094616 0.03445699 0.06587506 -0.118181065
000380 74 0b 81 be e9 41 82 3e 00 bc f6 be f2 51 83 3c
       -0.2520405 0.2544091 -0.48190308 0.016030286
000390 e1 ac 95 be fa 63 38 be d5 6a 30 3e 57 0d 83 3f
       -0.2923346 -0.18006888 0.17228253 1.0238446
0003a0 87 9f 37 bd 59 cc da 3d 33 d2 af 3c 11 8f 64 bd
       -0.04482987 0.106835075 0.021462535 -0.0558005
0003b0 40 04 8b 3e 92 98 4e be cc 72 d9 bd 38 74 19 3d
       0.2715168 -0.20175388 -0.10617599 0.03746435
0003c0 00 38 ce bd 61 45 8e 3d 89 a9 da be ba 8c e5 3d
       -0.10069275 0.06946827 -0.4270747 0.11208482
0003d0 72 c1 79 bb 6f 2f 2a bb 42 fa 18 3f 8b 8f 3d be
       -0.0038109687 -0.0025968214 0.59756863 -0.18511789
0003e0 9b 59 f0 bc 6d 64 91 bc 41 98 5b bd 63 07 6a 3e
       -0.029339602 -0.017748082 -0.053611998 0.2285438
0003f0 95 28 57 3e 21 ac 83 3d 59 e8 d4 bd ea 74 9e be
       0.21011575 0.06429315 -0.10395879 -0.30948573

fc1.bias f4 [512]
000000 73 c4 ee bd d7 61 89 3d 83 22 a8 3d 3a f3 36 bd
       -0.116585635 0.067081146 0.082097076 -0.044665553
000010 59 45 9a 3d fa 25 01 be 4c 49 43 3d 7a 53 53 bc
       0.07532758 -0.12612143 0.047677323 -0.01289832
000020 cc 28 c9 bb 07 c5 0c 3e 17 06 1d be a9 a2 fa 3d
       -0.0061388966 0.13747035 -0.15334354 0.12238056
000030 f3 fb 37 3e f8 78 3d bd 0c c1 f3 bd f5 62 2b be
       0.17967205 -0.046257943 -0.11902055 -0.16736968
000040 b0 71 ec 3d f2 5a 03 3d e6 e4 1d 3d 9f d6 15 3e
       0.11545122 0.032069154 0.038548373 0.14632653
000050 2a 03 f7 bc 19 4b 03 3d b5 8f e8 bc 07 06 c3 3c
       -0.030152876 0.03205404 -0.028388837 0.023806585
000060 dd 21 92 bd ae 9c 3e be 87 86 b3 bd 74 06 09 3e
       -0.07135365 -0.18614456 -0.087658934 0.13381368
000070 ae 3a 5d 3e 63 5d 51 3e 43 cc da 3d a4 a3 cc 3c
       0.21604416 0.2044578 0.10683491 0.024980374
000080 14 6f f7 bd de 70 cd bc 34 77 c3 bd 38 68 b8 3c
       -0.12081733 -0.025078233 -0.095442206 0.022510633
000090 0e f1 cd bd 4d f0 10 be 83 0b 35 bd e6 e4 b0 bd
       -0.10055743 -0.14154167 -0.04420043 -0.08637409
0000a0 d8 87 cc bd 7e 88 5c bd 7c 0f 37 bd 54 e7 b3 3d
       -0.09986848 -0.053841107 -0.0446925 0.08784357
0000b0 e7 ac b4 3d 16 4d bc 3c 2d 72 51 be 89 32 43 bd
       0.08822041 0.022985976 -0.20453711 -0.047655616
0000c0 c8 6d ac bd 98 bd 82 3d 32 22 2b 3e 96 40 23 be
       -0.084193766 0.063838184 0.16712263 -0.15942606
0000d0 bf 8a 41 3e e3 47 41 bd 5d bc b5 bd 70 0b f8 bd
       0.18900584 -0.047187697 -0.08873818 -0.121115565
0000e0 f6 47 da 3d 25 31 d0 bd de 06 06 be 1a 46 86 3d
       0.10658257 -0.101656236 -0.13088557 0.065563396
0000f0 8b c0 e9 bd da 93 3f 3e 34 ad 62 bd fb 1b 11 bd
       -0.11413678 0.18708745 -0.05534096 -0.035427075
000100 09 c8 8d 3d 69 fc 72 be 34 a2 11 3e ad 88 41 3e
       0.06922919 -0.237291 0.14222032 0.18899794
000110 af c8 09 3e a7 72 74 be 2c df d6 3d d8 f2 0a be
       0.13455461 -0.23871861 0.104917854 -0.135692
000120 48 52 87 3d 74 35 52 3e c5 cc 43 bc 60 35 34 3d
       0.06607491 0.20528203 -0.011950676 0.043996215
000130 0f f0 0b be 7a 07 bb 3d 07 ed 5e bd a0 c0 ad 3c
       -0.13665794 0.091322854 -0.054425266 0.021210015
000140 99 2d 99 bd d2 e6 8e bc c3 a2 23 be 20 2a e3 3b
       -0.074794 -0.017444048 -0.15980057 0.006932512
000150 ea 41 88 3d 83 b0 0c 3e 0b 79 a7 bd ed 5d 68 bd
       0.06653197 0.13739209 -0.08177384 -0.0567302
000160 a3 1e 40 3d 04 50 87 bd 53 6f 9e bc 4d 0f 84 3d
       0.046904217 -0.06607059 -0.019340193 0.06448231
000170 92 f9 b4 bd e2 6e 80 3e 1d 1d bc 3d 1e 99 81 ba
       -0.08836664 0.25084597 0.091852404 -0.0009887551
000180 4a fd 1c ba 50 25 0b bd dd 9c b8 3d 99 72 87 3d
       -0.0005988671 -0.03397113 0.09014294 0.06613655
000190 91 33 46 3d c9 3f db 3c e2 7d e0 bd 0c 52 96 bd
       0.04838902 0.026763814 -0.1096151 -0.07339868
0001a0 ff 3e cb bd 70 25 ad 3d 3a 83 41 bd fb 7d 5b be
       -0.09924125 0.08454406 -0.047244288 -0.21434776
0001b0 8b 8f 57 3d 0d 47 21 3e 1c 3c 2b bd fb 0e c1 3d
       0.052627128 0.1574976 -0.04180537 0.094266854
0001c0 fb 21 05 be c6 d3 13 3e e5 94 21 be ce 00 02 3e
       -0.13001244 0.14436254 -0.15779455 0.1269562
0001d0 d3 6d 1f 3c a8 a8 21 3e c7 57 94 bd 51 8a ff ba
       0.009730774 0.15786994 -0.07243305 -0.0019496178
0001e0 05 7e 9a bd 92 d6 db 3d 90 79 10 be 75 4f 54 3d
       -0.075435676 0.107342854 -0.14108872 0.05183359
0001f0 53 a9 78 3e 48 28 ee bc ed b5 99 bd f7 4c ca bd
       0.24283342 -0.029071942 -0.07505403 -0.09877961
000200 3f f8 35 3c e2 58 41 3e 03 83 31 be db 84 12 be
       0.01110655 0.18881562 -0.17335133 -0.14308493
000210 eb 51 24 be cf 1b a5 3d ae a6 42 be 8c 27 e5 3d
       -0.16046874 0.08061945 -0.19008896 0.111891836
000220 0c 03 ed bd 1c 8f 36 3d 2e 68 38 bc bf 85 af bd
       -0.11572847 0.044570073 -0.011255307 -0.08570432
000230 a6 ca 9e 3c 1f 5d 44 3e 48 32 dc bd 15 9f 0e 3e
       0.01938374 0.19176148 -0.10751778 0.13927872
000240 cd 28 7e be 8b c1 28 be 99 1c b1 3d 42 fb 07 3e
       -0.24820252 -0.16480081 0.08648033 0.13279441
000250 c0 4c a6 bc fd d0 dd 3d 3b 08 88 3d a6 e0 ee 3d
       -0.02030027 0.10830877 0.06642195 0.11663942
000260 83 17 de 3d 2a 4f 67 be 3e a8 ba bd 5c 6a 65 be
       0.10844328 -0.22588792 -0.09114121 -0.22403854
000270 61 93 6e 3d 2d 28 6b bc 81 4e 5d bd 74 63 b4 bd
       0.05824602 -0.01435284 -0.054029945 -0.08808032
000280 c8 6c 63 3d 58 54 07 be 2f 14 3c be 05 b9 d9 3d
       0.055523664 -0.13215768 -0.18367074 0.10630993
000290 75 87 9b bd 9e 83 bc bd a6 72 de bc d3 ad 3d 3d
       -0.07594196 -0.092047915 -0.027154278 0.04630835
0002a0 e3 92 3d be 79 8f 47 bd 73 ba d1 3d f6 86 47 3d
       -0.18513064 -0.04872081 0.102406405 0.048712693
0002b0 72 bd 75 bc 17 d6 d8 3a 46 ea bd bd e3 a3 44 be
       -0.014998781 0.0016543296 -0.092732 -0.19203143
0002c0 28 7b b6 bd 71 87 95 3d 5e 5b c1 3d ed e4 6f bc
       -0.08910209 0.07301224 0.09441255 -0.0146419825
0002d0 6e 7e 2c 3d 1b c1 0b be 0a 0d dc 3c a5 aa b0 3d
       0.04211276 -0.13647883 0.026861686 0.08626298
0002e0 f6 c2 43 3e d8 0c 3d bd 72 60 1f be 0d b2 92 bd
       0.1911734 -0.046154827 -0.15564135 -0.07162867
0002f0 d1 4d 07 be 7f c8 f4 3c 5b c4 7b 3e c5 e3 19 3d
       -0.13213278 0.02988076 0.24586622 0.037570734
000300 d8 23 15 bd 47 57 cc bd 5f a3 3d 3b 88 a7 06 bd
       -0.036411136 -0.09977584 0.0028936488 -0.032874614
000310 2a 87 02 3d cc 90 37 be 78 aa 4d 3e 0d 94 9c bc
       0.031867184 -0.1792633 0.2008456 -0.019113565
000320 0f 15 52 3e 1c 73 6a bd 80 3c 52 bd f1 40 f9 3c
       0.20515846 -0.057238683 -0.05132723 0.030426474
000330 9c c1 2b be d5 2a 80 3d 4c 81 94 bd 45 69 01 be
       -0.16773075 0.062581696 -0.07251224 -0.12637813
000340 1a 26 0d 3e b3 ee d4 3d b6 19 38 3d d7 67 dd 3d
       0.13784066 0.10397091 0.044946395 0.108108215
000350 91 50 aa 3d 63 25 55 3e d2 93 c9 bd 57 4e fa 3d
       0.08316148 0.20815043 -0.098426476 0.122219734
000360 ec a7 23 3d 19 42 95 bc 35 d9 28 3e 6a df fd bd
       0.039955065 -0.018219994 0.16489108 -0.123961285
000370 62 00 66 3c 27 c1 c8 bd 3b 5a 1f 3e 4d aa a1 3d
       0.014038177 -0.09802466 0.15561764 0.078938104
000380 57 52 a5 3d bb 05 bd 3d aa 16 b0 3d d6 6b 29 3c
       0.08072346 0.092296086 0.08598073 0.0103406515
000390 cf b7 ed bc 71 3c 91 3d 87 c5 5e be df ae 30 bd
       -0.02901831 0.070916064 -0.21755038 -0.04313552
0003a0 fd 6f 57 be b3 eb fc 3b 30 98 f3 3c 79 0b 9d bd
       -0.21038814 0.007718527 0.029735655 -0.07668204
0003b0 82 1c fa bb 9c ca 34 3d a0 5e 46 3d fd d9 bb bd
       -0.007632793 0.044138536 0.048430085 -0.09172437
0003c0 58 da bd 3d 1c 03 49 bd 2a d1 e5 bc f7 96 80 3d
       0.092701614 -0.04907523 -0.028053839 0.06278794
0003d0 57 98 10 3d 89 9a 71 be 0e 35 fb 3d 61 93 ee 3d
       0.035301533 -0.23594107 0.12265979 0.11649204
0003e0 98 09 32 3c 66 f7 a3 3d 3f 71 96 3d 42 f5 6d bd
       0.010866545 0.08006172 0.07345819 -0.058095224
0003f0 c6 3d 14 3e b2 5d 99 bd 47 41 37 3d fc b6 94 bd
       0.1447669 -0.07488574 0.044739988 -0.07261464

fc2.weight f4 [256, 512]
000000 2b c5 ba 3c ee f5 b7 3d 3b c1 9e 3d 3c f7 f9 bd
       0.022799095 0.08982454 0.077516995 -0.12205359
000010 58 59 3f be ef 74 ac bd eb ef 03 bf 7c d0 b2 bd
       -0.18686426 -0.08420741 -0.5153796 -0.087311715
000020 cf 16 57 be 44 9d 9c be ad 84 fe 3c 8f 76 98 3d
       -0.21004795 -0.30588734 0.031069124 0.07444488
000030 d5 5e 19 be 2c 8b 50 be 02 b3 b9 3e a6 fc 24 bb
       -0.14977582 -0.2036559 0.36269385 -0.0025175004
000040 f8 49 b0 bc f6 8a 11 be 35 b7 81 be 25 28 be bd
       -0.021519646 -0.14213166 -0.25335088 -0.09285001
000050 4d b3 83 bd b9 95 15 3c a0 f5 52 3e 5d 1a 54 be
       -0.06430683 0.009129935 0.20601511 -0.20713182
000060 bf 51 4d 3c a6 4a 59 3e 36 c6 8c bc 14 4f 26 be
       0.012531697 0.21219882 -0.017184358 -0.16241103
000070 bf 19 aa bd 37 87 12 be 9a 26 32 3e 1a 41 51 3b
       -0.08305692 -0.14309393 0.17397538 0.0031929673
000080 a7 30 30 be d8 5f 0b bd 4a 2e c8 bd 96 ef e3 3c
       -0.1720606 -0.03402695 -0.09774454 0.027824204
000090 03 12 8e 3d 73 cb 80 3d 08 3f de be 2e c5 91 be
       0.06937029 0.06288805 -0.43407464 -0.2847075
0000a0 fa 66 a9 bd 16 25 25 3b 19 e2 5b 3e 65 a4 98 3b
       -0.08271594 0.0025199107 0.21472968 0.004658269
0000b0 eb 3b ce 3b 1e 98 6d be 28 71 76 bd 26 b4 6b 3e
       0.006293764 -0.2320256 -0.060166508 0.2301794
0000c0 85 68 90 3e 1f f6 b0 3d 30 e3 8c be eb 87 10 3e
       0.28204742 0.08640694 -0.2751708 0.14114349
0000d0 d0 9c c7 3d 37 8b d9 3c a3 4f 0b bd 2a 9b 1f bf
       0.097467065 0.02655564 -0.034011494 -0.62346137
0000e0 09 e9 9e 3c 61 b2 92 be de 14 53 3e b7 19 7b 3d
       0.01939823 -0.28651717 0.20613429 0.06130382
0000f0 22 59 f0 3c da fa a4 bd a3 9e eb 3d 62 b8 63 3e
       0.029339377 -0.08055659 0.11504867 0.22238305
000100 16 57 04 be 02 55 ff 3c 53 f8 1b be fe 1b c3 be
       -0.12923846 0.031168465 -0.15231447 -0.38107294
000110 62 0c 85 bd 91 dc 7a 3d e3 85 82 3d cf de 46 3e
       -0.064965025 0.061245505 0.06373193 0.19420932
000120 b0 b4 34 3e c3 b2 c0 3c 6a 40 7b be 4b 4e 8c 3d
       0.17647052 0.02352274 -0.24536291 0.06850871
000130 4b 3c 77 3e 3e dd 66 3e d5 ec 74 3e 3e 7c 7e 3e
       0.24144094 0.22545335 0.23918469 0.24852082
000140 d0 ad 0a be e3 19 a7 3d af 7f 66 3e 7e 52 40 be
       -0.13542867 0.081592344 0.22509645 -0.18781468
000150 12 dd 3f 3e 33 29 45 3e f6 1d 8e 3e a7 a5 92 be
       0.18736675 0.19253998 0.27757233 -0.28642008
000160 8e ea 59 3b 4a b7 31 be 69 ec b2 bc 19 09 83 be
       0.0033251378 -0.17355075 -0.021841245 -0.25592878
000170 ff 9d 56 3d 62 ba f6 bd db fd 8b 3c 7e 7f 8a bd
       0.05239677 -0.120472685 0.017088821 -0.067625985
000180 b2 d4 57 bd 9b 96 0b be e4 e7 fa 3d 23 1a f5 be
       -0.052693076 -0.1363167 0.12251261 -0.47871503
000190 6a a3 05 be 98 8e 1a be bd 44 17 3d b2 bb 4b 3d
       -0.13050619 -0.15093458 0.03693079 0.049739547
0001a0 35 30 e5 bc e0 b1 64 be 6d 07 4a bd 46 14 db 3e
       -0.027977088 -0.22333479 -0.049323488 0.42788905
0001b0 bb 74 0a be 2c 1a 4b be 41 0b 55 3d bb 31 4a be
       -0.13521092 -0.19834203 0.052012686 -0.19745533
0001c0 18 aa 94 bd ca 04 74 be 77 94 42 be 3a f3 cc 3d
       -0.07259005 -0.23829952 -0.19001947 0.10007329
0001d0 ca 7a 49 3d 0d 3b 39 3c e6 66 40 3d cb 74 c0 bd
       0.049189366 0.011305583 0.04697313 -0.093972765
0001e0 9a 3d 29 be 2e 1f 67 bd 88 a1 de 3e 34 90 16 3d
       -0.16527405 -0.05642622 0.43482614 0.036758617
0001f0 c4 1e 36 be b0 9e 45 3c 36 e2 c3 3d 55 7e 08 3e
       -0.17785174 0.01206176 0.09564631 0.13329442
000200 9f af 3f 3e 65 4c 78 be 57 85 82 3b ed a2 94 be
       0.18719338 -0.24247892 0.0039831805 -0.29030553
000210 52 62 4f 3e cf f2 f4 be 7a 51 65 bd 2e bf 0f bb
       0.2025235 -0.47841498 -0.055985905 -0.002193402
000220 d0 28 9a 3e 11 98 34 be a5 43 29 3e ab 0b 71 be
       0.30109262 -0.17636134 0.1652971 -0.23539607
000230 02 0a 55 be 3e 55 f2 bd 3e 89 af 3c 72 93 21 bd
       -0.20804599 -0.11832665 0.021427747 -0.039447255
000240 5c 50 98 3e 41 34 cd bd a0 d6 7a be 84 f9 76 3e
       0.2974881 -0.10019732 -0.24495935 0.2411862
000250 e5 74 06 3e 1a 20 9a 3a 2a 30 34 3c 95 d3 4a 3c
       0.13130529 0.0011758835 0.010997811 0.012379547
000260 9e f9 b7 be 82 44 75 3e 2e dd 5d be 74 09 35 3d
       -0.3593263 0.23951915 -0.21666405 0.04419847
000270 7b 73 0b bf 6f 53 a6 bd 69 21 f7 bd 36 93 eb 3e
       -0.54473084 -0.081213824 -0.12066919 0.4601075
000280 3d eb 2a be 03 f2 52 3e 58 28 39 3e 6a 1a 34 bc
       -0.16691299 0.20600133 0.18081796 -0.010992626
000290 16 ae 99 3e 6b 10 a0 3e 68 ff e4 bd 9b 79 19 bf
       0.3001563 0.31262526 -0.111815274 -0.5995118
0002a0 91 18 77 3d 46 c7 3a 3e 62 bf 10 3e 4b 13 3f be
       0.060326163 0.1824008 0.14135507 -0.18659703
0002b0 50 bf 00 be 93 eb 10 3d 64 07 62 3e 89 c5 af bd
       -0.1257298 0.03538091 0.22073132 -0.08582599
0002c0 a1 dc 98 3e 01 81 43 bc ef 8a 80 bd e5 46 4c be
       0.29855826 -0.011932612 -0.062764995 -0.19948919
0002d0 8c 22 81 3c ef 10 18 3e 4d 63 48 be 08 f9 4b 3e
       0.015763544 0.1485021 -0.1956913 0.19919217
0002e0 1a e5 68 be 8e a1 d6 bd 1f 7a 6a 3e 79 13 1a bd
       -0.22743645 -0.10480033 0.22898148 -0.037616227
0002f0 b9 2c d7 3d 23 7a 63 be 3b 1b 52 be e5 58 c3 3d
       0.10506577 -0.2221456 -0.205182 0.0953844
000300 1d e6 da 3d 9a a4 2e 3e 50 e4 db 3d 96 81 00 bf
       0.10688422 0.17054978 0.107369065 -0.5019773
000310 d7 df fd bb c4 13 b8 bd 52 fe 75 be a7 32 68 bb
       -0.007747631 -0.08988145 -0.24022797 -0.0035430582
000320 61 57 3f be 0f 33 c6 3d f7 37 bc bb 2c d3 de 3d
       -0.18685676 0.096777074 -0.005743976 0.108801216
000330 5e c7 5e 3e 0f be 28 be a4 e8 89 3c ec aa e9 3a
       0.2175574 -0.16478752 0.016834565 0.0017827428
000340 b6 44 45 be 1c 76 a9 be 6a 47 32 bc 9f 4d 8f bc
       -0.19264492 -0.33097923 -0.010881284 -0.017493067
000350 f5 e8 18 3d 8e 5c b5 bd 02 57 9c 3e aa 03 6c be
       0.03733154 -0.08855544 0.30535132 -0.23048273
000360 92 a8 a6 3d 9c a3 61 3e a8 7a a8 be ac bd 27 3d
       0.08137621 0.22035068 -0.3290608 0.04095237
000370 5d 84 82 be cf a3 1e 3d 9e 59 28 3b 51 80 ad be
       -0.2549161 0.03873044 0.0025688182 -0.3388696
000380 48 97 b2 be 5c ae f9 3c a6 fe 26 3e 02 d8 0a 3c
       -0.34881043 0.030478649 0.16308078 0.008474352
000390 e2 79 4e be 34 6d cb 3d 83 d4 1c be e0 34 d4 bd
       -0.20163682 0.09932938 -0.15315442 -0.103616476
0003a0 80 79 af 3d 56 be 1c bc 13 35 81 bd 11 c0 c5 bd
       0.08568096 -0.009566864 -0.06308951 -0.096557744
0003b0 5f d1 ae be 5b 64 91 3c 2c e9 ba bd e3 88 d7 b9
       -0.34144112 0.017748049 -0.09126505 -0.00041109984
0003c0 71 7e a4 3e ee 5b 20 3e 1c 3a 75 be c6 19 f5 bc
       0.32127717 0.15660068 -0.23947948 -0.029919516
0003d0 7c ea af be c2 2c 6b be 24 26 92 bd 97 be 49 3d
       -0.34358585 -0.22966293 -0.07136181 0.049254026
0003e0 98 1e 73 3d 5c 57 da bd 6c 86 a1 be 17 08 a3 ba
       0.05935535 -0.10661194 -0.31547868 -0.0012438324
0003f0 b8 af 89 bd 05 d4 b1 3d 9c 2d b2 bd 40 a2 22 3e
       -0.06722969 0.08683018 -0.087001055 0.15882206

fc2.bias f4 [256]
000000 81 b4 1d be 0a 76 0e be a2 d6 9a be 0a 8f 99 bd
       -0.15400888 -0.13912216 -0.30241877 -0.07497986
000010 7d 5b 78 be 05 56 76 bd 1a b3 a7 be b7 73 7c be
       -0.2425365 -0.06014063 -0.3275383 -0.24653517
000020 f6 0e a1 be 88 3f 98 be 21 6e 87 be 6a c5 20 be
       -0.31456727 -0.2973597 -0.2645121 -0.15700307
000030 d7 45 78 be 6b 13 75 bd 16 6b 37 be 1d 00 2d be
       -0.24245392 -0.05983297 -0.17911944 -0.16894574
000040 06 28 e4 bd c3 f0 7c be d5 cd a8 3c 81 1d 43 be
       -0.11140446 -0.24701218 0.02060596 -0.19054224
000050 77 6a d3 bd 67 b9 36 be c8 e6 63 be 24 b1 27 be
       -0.10323041 -0.17844163 -0.22256005 -0.16376168
000060 14 26 9c be 99 45 f0 bd cf 93 d2 be aa d9 85 be
       -0.304978 -0.11732025 -0.41128394 -0.26142627
000070 90 6e 4a be ef 7d e4 be 81 8c 9b be e1 62 3e be
       -0.19768739 -0.4462733 -0.30380633 -0.18592407
000080 27 2c eb bc e0 39 f9 bd 42 a5 41 be 25 6f 1b be
       -0.028707577 -0.12169242 -0.18910697 -0.15179117
000090 b2 cb 11 be ab 31 23 be e3 56 b5 bd af ef 80 be
       -0.1423786 -0.15936916 -0.08854463 -0.25182864
0000a0 28 da 04 be 6f c4 34 bd ad 18 70 be 6a e9 97 be
       -0.12973845 -0.044132646 -0.23446913 -0.29670268
0000b0 fb 6d aa be dd 3c 78 be b0 80 71 be 54 92 91 be
       -0.33287033 -0.24241967 -0.23584247 -0.28431952
0000c0 98 af 92 be e0 8a a8 be e1 33 24 be 49 6b d9 bc
       -0.28649592 -0.32918453 -0.16035415 -0.026540415
0000d0 70 b1 5d be 35 c5 8b be be cb 98 be 25 21 b7 bd
       -0.21649718 -0.27298895 -0.29842943 -0.08941869
0000e0 07 e2 57 3b 39 82 70 be b6 d9 94 be e9 c6 9e be
       0.003294112 -0.23487176 -0.2907235 -0.3101113
0000f0 7d ea 64 be 5f ad 70 bd 71 f3 b6 be e7 ee a4 be
       -0.22355075 -0.05875909 -0.35732606 -0.32213518
000100 d5 b2 af bd cd f5 4f be 1a 39 84 be f8 b7 a5 ba
       -0.085790314 -0.2030861 -0.25824815 -0.0012643328
000110 9a 6e 01 bd 72 bf 17 be 4c a4 91 be 69 0c 88 be
       -0.03159962 -0.14819124 -0.2844566 -0.26571968
000120 6e 3b 38 be d1 d5 fd bd 2e a2 9a be 1d 2a 46 be
       -0.1799142 -0.12394298 -0.30201858 -0.19352002
000130 fd b9 83 be 60 00 af 3c 64 a3 6e be 2e 25 a3 bc
       -0.25727835 0.021362484 -0.23304516 -0.01991519
000140 08 c5 5a be f1 14 c5 bc 90 34 4c be 9b 89 81 be
       -0.21364224 -0.024057837 -0.19941926 -0.25300297
000150 e7 a3 9b 3a 00 c3 80 be b2 9b d4 be 9b 12 e8 bb
       0.0011874408 -0.25148773 -0.41525036 -0.007082296
000160 cf 0a 90 be 58 74 25 be d4 b0 52 be 08 76 ad be
       -0.28133246 -0.16157663 -0.20575267 -0.33879113
000170 79 ec 00 be a2 07 72 bd 5e dc 53 be 9a 93 70 be
       -0.12590207 -0.05908931 -0.20689532 -0.23493806
000180 7b f2 a4 bd 39 ee 9c be 79 3a ab 3d 23 5d f8 bd
       -0.08054062 -0.306505 0.08360762 -0.121271394
000190 f9 d2 29 be bf cc 95 bd 82 27 e6 bd 6d be 30 be
       -0.16584386 -0.07314443 -0.11238004 -0.17260142
0001a0 59 da 71 be 4d 54 c9 bd 06 af 2f be e7 b8 46 be
       -0.2361845 -0.09830532 -0.1715661 -0.19406472
0001b0 94 51 fe 3d 6e bc c1 bd 7b 63 a2 be 34 75 8d be
       0.124179035 -0.09459768 -0.31716523 -0.2762848
0001c0 b9 68 8c be d3 3d d1 3d 25 a5 bf bd 34 14 c2 be
       -0.27423647 0.1021687 -0.09357671 -0.3790604
0001d0 c3 e7 55 be e3 31 ba bc f6 26 18 bd 2a d3 9e bd
       -0.20889191 -0.022728866 -0.03714653 -0.0775512
0001e0 72 d5 e5 bd 49 54 c9 bc 3b c9 0d be a7 68 e0 be
       -0.11222352 -0.024576323 -0.13846295 -0.43829843
0001f0 13 b7 89 be ec 6a 83 be d6 c2 04 be 70 4d 0c be
       -0.26897487 -0.25667512 -0.12964949 -0.13701415
000200 4c b5 8c be 7b d6 87 be d3 fb 2c be 65 93 63 be
       -0.2748207 -0.26530823 -0.16892938 -0.22224195
000210 b0 d2 74 be 74 85 75 be da 9e c1 bd 2b 76 5c be
       -0.23908496 -0.2397669 -0.09454127 -0.21529453
000220 bd 21 75 3d b3 c4 73 be c7 37 8b be 6a 5c f6 bd
       0.05984663 -0.23805504 -0.27190992 -0.12029345
000230 20 92 61 be 26 83 19 be 30 e3 6a be cb ff 1e be
       -0.22028399 -0.14991435 -0.22938228 -0.15527265
000240 5d c2 1b be 5b 82 e0 bd 0a 23 87 be 06 56 cc be
       -0.15210862 -0.10962363 -0.2639392 -0.3990938
000250 a8 e1 66 be 13 69 a8 be 45 d6 be be ba 03 44 bd
       -0.22547019 -0.32892665 -0.3727285 -0.047855116
000260 05 f9 d7 bd 31 cf b3 be d0 91 82 be 12 08 50 be
       -0.105455436 -0.35119012 -0.2550187 -0.20315579
000270 85 13 81 be 0b 8a 4d be 5a d8 74 bd 9e 02 bb be
       -0.25210205 -0.2007219 -0.05977664 -0.36525434
000280 3a 35 cf bd b6 be 93 be 1b 82 4c be 2d 1d 51 be
       -0.10117574 -0.28856438 -0.19971506 -0.20421286
000290 a7 8a a1 be 60 94 61 be a9 47 b9 be 87 89 a7 be
       -0.31551096 -0.22029257 -0.36187485 -0.32722113
0002a0 be e8 34 be 7d 04 6f be e4 51 80 be 47 c7 6a be
       -0.17666909 -0.23341556 -0.25062478 -0.22927581
0002b0 e5 ef 3f be 66 45 0b be 08 a0 6a be 18 4d 50 be
       -0.18743856 -0.13600692 -0.2291261 -0.20341909
0002c0 68 e4 93 be 1c e7 a7 be c6 5c 49 be 60 7c 92 be
       -0.28885198 -0.3279351 -0.19664297 -0.28610516
0002d0 c2 5a 73 be 23 5e 74 be 09 24 63 be f4 5e 6b be
       -0.2376509 -0.23864035 -0.22181715 -0.2298544
0002e0 d3 eb b6 be 97 ca 07 be 7e ca 70 be 83 dc 2b bd
       -0.35726795 -0.13260876 -0.23514745 -0.041958343
0002f0 2e 95 65 bd 87 f5 33 be 20 91 8c be b5 e1 bd be
       -0.056050472 -0.1757413 -0.27454472 -0.37086263
000300 c8 bb f3 bd 6b 4a cc be e9 88 57 3d f9 70 12 be
       -0.11901051 -0.39900526 0.052620802 -0.14300908
000310 1d ac 17 be 9b 52 53 be 21 f1 1e be 2b c4 c0 bd
       -0.1481175 -0.2063698 -0.15521671 -0.09412416
000320 0a 35 66 be 2b 19 8d be 2f b7 96 3c 26 82 1c be
       -0.2248117 -0.27558264 0.018397896 -0.15284023
000330 65 4e a2 be f0 e2 a1 be 56 a4 a3 be 24 95 f8 bd
       -0.31700435 -0.31618452 -0.31961316 -0.12137821
000340 07 50 69 bd cd 23 2b be 43 ec 8b bd 6c f8 1f be
       -0.056961086 -0.16712876 -0.06832173 -0.15622109
000350 a2 cf f1 bd 9f 03 11 bd c8 d2 30 bd 0f 62 40 be
       -0.11807181 -0.035403844 -0.043169767 -0.18787406
000360 ed bd 2f be 64 6f 41 be 87 7f 7e bd 19 f5 91 be
       -0.17162295 -0.18890148 -0.06213334 -0.28507307
000370 28 61 cb bc 28 f5 ac be 2f c0 83 be b9 12 51 be
       -0.024826601 -0.3378079 -0.25732562 -0.20417298
000380 cf 27 97 bd 13 ec 86 bd d7 e3 67 be 5e fc 07 be
       -0.0738064 -0.06587996 -0.22645508 -0.13279864
000390 8f fa 1c be e9 35 51 be 5a da 34 be 20 53 7d bd
       -0.15329956 -0.20430721 -0.1766142 -0.061846852
0003a0 8b d7 fb bd 50 0e 20 bd f3 0d c5 bd 1e 5b 08 be
       -0.12296971 -0.03907615 -0.09621801 -0.13316008
0003b0 64 15 7f be a8 33 8a be e9 1f 48 bd 2a 2c ae bc
       -0.24910504 -0.26992536 -0.048858557 -0.021261293
0003c0 7e c1 4e be 4c 48 02 be 96 28 6a be 1e 76 d6 bd
       -0.20190999 -0.12722892 -0.22867045 -0.10471748
0003d0 15 58 d3 bd 7b 49 20 be d7 c5 3b be 0e cb 86 be
       -0.10319535 -0.1565303 -0.18337189 -0.26326793
0003e0 68 21 91 be f4 cd f2 bd 7b 59 88 be 49 fb 83 be
       -0.283458 -0.11855689 -0.26630768 -0.25777653
0003f0 9b 9b 51 be 5b 78 9a 39 ac 54 99 be cb 0a 41 bd
       -0.20469515 0.0002946284 -0.29947412 -0.047129434

fc3.weight f4 [128, 256]
000000 83 fc 8e be ef 4d 5e bd 06 eb c9 3c c3 e3 04 3e
       -0.27927026 -0.054273542 0.0246482 0.12977509
000010 d2 5c cb be 41 89 89 3d 05 4f 89 3e cf ee d7 be
       -0.39719254 0.06715632 0.268181 -0.42174384
000020 bc 3f 71 3e 77 61 6b bd 55 6a 2d be b4 e5 de 3c
       0.23559469 -0.057465997 -0.16935094 0.02720914
000030 a6 da 92 3d 52 5b bd bd ad b0 ad 3c fe 38 40 3e
       0.0717061 -0.092459336 0.02120241 0.18771741
000040 cc 20 0a be 82 99 a8 3e 38 28 08 bf fe ad 5f 3d
       -0.13489074 0.32929617 -0.5318637 0.05460929
000050 c8 17 fb 3d 5d f4 90 3d 72 06 81 3e 53 6f 53 3d
       0.12260395 0.070778586 0.2520023 0.05161984
000060 14 88 02 be 90 bb 1d bc 5b e9 63 3e 04 36 f8 3d
       -0.12747222 -0.009627238 0.22256987 0.12119678
000070 fb 1f 9e bd 0b 1e ae 3e be c2 b2 3d df b2 c5 3d
       -0.077209435 0.34007296 0.087285504 0.096532576
000080 e1 d7 e0 bc c3 4c 23 be 8f ee 3f 3d 8c 20 f4 bd
       -0.02744669 -0.15947251 0.046858367 -0.1192027
000090 9a 82 b8 3d ae ff d3 be d7 c9 cd 3d 57 b3 15 be
       0.09009285 -0.41406006 0.100482635 -0.14619194
0000a0 94 7b 88 3c ea 6c 06 be 66 6a 37 3d 38 fd df bd
       0.01666049 -0.13127485 0.044779204 -0.109369695
0000b0 c4 c2 09 3e f2 4f 98 3d 9b e2 cd 3d bb 2f 98 3d
       0.13453203 0.07437123 0.10052987 0.07430979
0000c0 45 8d 21 be ee e9 a9 3d 54 ab 82 3d 4d 58 8c bd
       -0.15776546 0.08296572 0.063803345 -0.068527795
0000d0 bb 07 9d 3d 09 97 c9 3e 12 5a ee bc 3f 23 47 be
       0.0766749 0.39373043 -0.029095683 -0.19447039
0000e0 67 b2 7a be 63 a4 bc bd 9c 8e 9c 3d b4 15 36 bd
       -0.24482118 -0.09211042 0.07644388 -0.04445429
0000f0 4d c5 28 3e 90 b1 27 be 64 79 02 bd 60 f1 68 3e
       0.16481514 -0.16376328 -0.03185405 0.22748327
000100 cb 72 bc bd 84 e0 89 3e 8c f5 02 3e dc b7 ae 3d
       -0.092015825 0.26929104 0.12788981 0.08531162
000110 79 1b 40 be 8c 0e 1d bf 19 48 2a 3e a2 d9 5c 3e
       -0.1876048 -0.6135032 0.16629066 0.21567395
000120 c9 4f d4 3d 69 9d 98 3d 26 6b 85 3d d5 51 2f 3e
       0.1036678 0.074518986 0.065145776 0.1712106
000130 73 d4 ea 3b 49 0a 4e bc 11 24 3f 3d ad 45 24 3e
       0.007166439 -0.012575694 0.046665255 0.16042204
000140 83 af 6c be 02 21 69 3d 41 32 38 3e fd b2 c2 3c
       -0.23113827 0.056916244 0.1798792 0.023766989
000150 3c 25 c7 3b 0b aa d0 bd bc 6b 89 3d 19 31 34 be
       0.0060774367 -0.10188683 0.06710002 -0.17596854
000160 b5 ad 85 be 23 e5 5d 3e 5b d6 8a be c8 52 b3 3e
       -0.2610909 0.2166944 -0.27116665 0.35024095
000170 4c 05 f1 bd 72 95 1c bd c1 e8 ab bd 2d 78 e4 be
       -0.117685884 -0.03822846 -0.08394004 -0.44622937
000180 7b 48 90 bd c4 4d 84 3d 2a cf 8c be 58 84 e8 3d
       -0.070450746 0.06460145 -0.27501804 0.113533676
000190 38 dd e7 3d 0b 2f 28 bd 31 2b 3e bc 2c a6 d6 3d
       0.11321491 -0.04106049 -0.011606977 0.104809135
0001a0 7a c2 84 3d 71 bf 64 3d f8 9f 0b be a6 29 bf 3d
       0.06482406 0.055846635 -0.13635242 0.09334116
0001b0 5c 5c 1e bf 45 96 be 3c 07 be c3 3e 8c 4a 81 bd
       -0.6185968 0.023265013 0.38230917 -0.06313047
0001c0 10 cb 02 3e c6 3b 45 3d 0c a2 59 be ea b4 19 bc
       0.12772775 0.048152708 -0.21253222 -0.009381512
0001d0 34 5d 8d be 82 c0 df bc e1 97 62 3d 9d 6d df be
       -0.2761017 -0.027313475 0.055320624 -0.43638316
0001e0 6e c9 ba 3c 52 50 09 bd c8 d5 ff bd f0 32 09 3e
       0.022801127 -0.033523865 -0.124919474 0.13398337
0001f0 8e 63 2d 3e 34 f9 bf 3d 21 1c b0 be a5 f3 4b be
       0.16932508 0.093737036 -0.3439646 -0.19917162
000200 37 c0 e8 bd d3 ba 19 3e 63 69 17 3c 55 cd 34 3e
       -0.11364787 0.15012674 0.009241435 0.17656453
000210 a7 f7 74 3e c9 a6 0a be 64 c7 09 be b0 89 9e 3e
       0.23922597 -0.13540186 -0.13454968 0.30964422
000220 15 43 35 3d f3 c0 14 3e 3e ed 92 bd 59 f3 28 3d
       0.044253428 0.1452673 -0.071741566 0.0412477
000230 4b c7 9f be df 7c 3b 3e 55 90 ea bb aa 6d 1b be
       -0.31206736 0.18309353 -0.007158319 -0.15178552
000240 25 64 4c 3e 1e 9b d8 3b 3c 3e 90 bd bd 47 23 3e
       0.19960077 0.0066102883 -0.0704312 0.15945335
000250 d5 ff 91 3e e0 e4 23 3e 5a f9 06 3d 76 4d 54 bd
       0.28515497 0.16005278 0.032952644 -0.051831685
000260 bd fe 93 3d 32 e6 c7 3d 1a 7f 17 be fc c2 4d 3d
       0.07226322 0.09760703 -0.14794579 0.05023478
000270 74 88 5e be 14 36 95 3c 8f 03 c9 3c a7 1a 2e 3e
       -0.2173174 0.018214263 0.02453783 0.17002355
000280 98 2a 12 3e c7 87 45 3e 3a 38 62 3e 74 f7 0f 3e
       0.1427406 0.19290076 0.22091761 0.1405924
000290 20 31 09 3c 2e 81 43 3e c4 cc 2c bd 35 67 76 be
       0.008373529 0.19092247 -0.042187467 -0.24062808
0002a0 a0 bb 06 3a e7 43 88 be bc 4b a2 3e 78 82 0a 3e
       0.00051396526 -0.26614305 0.31698406 0.13526332
0002b0 f5 8a 61 3c c4 95 34 be 94 47 1e be a0 88 e6 3b
       0.01376604 -0.17635256 -0.15456992 0.00703533
0002c0 5a 65 07 3e 48 cb 37 be 33 45 40 bd a9 de 0e 3e
       0.13222256 -0.1794864 -0.046940994 0.13952126
0002d0 14 9a e2 3d c7 00 56 bd ba 10 b8 be 8c 2e 25 be
       0.11064544 -0.052246835 -0.3595026 -0.16131037
0002e0 bf ee 9e be 3e f8 6b 3e 63 a3 34 3e 51 0a 81 3e
       -0.31041524 0.23043916 0.17640452 0.25203183
0002f0 92 f5 e9 be 53 21 a9 3c f5 fe 2b be 47 15 59 be
       -0.45695168 0.020645773 -0.16796477 -0.21199523
000300 9b 5b ae bd 16 b3 03 3e 57 5d 9e bc e9 46 df 3c
       -0.08513566 0.12861285 -0.019331617 0.027255492
000310 31 7d 06 3e dc 18 9e 3d bc d3 3b bd 27 74 f4 3d
       0.13133694 0.07719585 -0.045856223 0.11936217
000320 5b 26 fd bd b6 12 91 3e 9e d6 1c be 86 55 13 3e
       -0.12360831 0.28334588 -0.15316245 0.14388093
000330 fb 19 8f 3e b6 bf 1f bc 4f 69 a1 3d c9 3f fb 3d
       0.2794951 -0.009750297 0.07881414 0.122680254
000340 05 40 3c be 98 11 7d be 0d 65 d1 be 2c d5 b1 3d
       -0.18383797 -0.24713743 -0.40897408 0.086832374
000350 1c 58 40 3d 3f 1c 18 3e f2 67 d3 bd a9 dc b1 3d
       0.046959028 0.14854525 -0.1032256 0.08684666
000360 6b a1 05 be 15 fa 4e be 2b 01 7a 3d cf 41 48 3d
       -0.13049857 -0.20212586 0.06103627 0.048890885
000370 97 24 9f 3d cf dd 8b 3e d1 f6 08 3e 00 fc f4 3d
       0.07770651 0.27317664 0.13375403 0.11962128
000380 40 2a ff bc 5f 89 d0 3d de d7 e0 3d 98 c4 a5 be
       -0.031148076 0.101824515 0.109786734 -0.32376552
000390 c0 1f 93 3c 0f 35 45 3d c0 9c 1b bd d1 34 1c 3e
       0.017959476 0.048146304 -0.037991285 0.15254523
0003a0 88 e7 59 3c 6e 0b d2 3d 62 52 d1 be c3 f5 99 be
       0.01329983 0.10256086 -0.40883166 -0.30070314
0003b0 0c 62 6b 3e bc ad 11 bd ec 53 f9 bd 9a 92 de bd
       0.2298662 -0.035566077 -0.1217421 -0.10867806
0003c0 65 57 b3 3d 84 4f 64 3c 41 0a 68 be f6 de 34 3e
       0.087569036 0.013934974 -0.22660162 0.17663178
0003d0 53 21 b5 bd 2d c7 4e be 85 37 95 3d 54 1f 8b 3e
       -0.08844247 -0.20193167 0.0728598 0.2717234
0003e0 ee 0e 73 3d b9 8b 87 be de f4 4f be bf ff 56 bd
       0.05934041 -0.26473787 -0.20308253 -0.052489992
0003f0 be 6a 1e 3e 9e 41 f6 bd 82 7e 0d 3c f4 bc c9 bd
       0.15470406 -0.12024234 0.008636119 -0.09850493

fc3.bias f4 [128]
000000 96 bf 2d bf 01 f9 2a be 7c 25 c4 be 70 9b f2 bd
       -0.6787046 -0.1669655 -0.38309848 -0.118460536
000010 cd 94 3c bd c1 60 52 bd d1 8e c2 be e6 25 80 bd
       -0.046040345 -0.051361803 -0.37999585 -0.062572286
000020 04 18 ff bd 18 66 55 be 5c cc 77 3d 71 c8 81 be
       -0.124557525 -0.20839727 0.060497627 -0.25348237
000030 14 af b4 bd 13 c4 a2 be d7 ff 8c 3c c1 a2 a0 be
       -0.08822456 -0.31790218 0.017211838 -0.3137417
000040 f6 5f a2 be 9f 15 d5 be 49 5b 98 be 7c c9 fd be
       -0.31713837 -0.41618058 -0.29757145 -0.49567783
000050 cd a5 de be 31 bd d0 bd ba 81 d3 be e2 cd a6 be
       -0.4348587 -0.101923354 -0.4130991 -0.3257895
000060 ae 97 9f bb 26 0f b8 be df ae c5 be 99 21 25 be
       -0.0048703765 -0.35949057 -0.3860998 -0.16126098
000070 45 0d b4 3c e6 3a 72 be 58 07 78 bd 55 d7 a5 be
       0.021978984 -0.2365528 -0.06055388 -0.32390848
000080 a7 a5 ff bd c9 ab 5e be 23 37 ca be 86 68 db be
       -0.124827676 -0.21745218 -0.3949519 -0.42853183
000090 29 11 59 bd 83 19 38 be 08 ea 3a 3d 4c c8 80 be
       -0.05299488 -0.17978482 0.045633346 -0.25152814
0000a0 d9 df 1c 3d d1 93 80 bd eb 92 16 be ee 53 30 be
       0.038299415 -0.06278194 -0.14704482 -0.17219517
0000b0 66 28 d4 be 17 bf e2 ba 29 76 1a be e8 4a 07 be
       -0.41437072 -0.0017299381 -0.15084137 -0.13212168
0000c0 70 2f d3 3d 98 e5 42 be 6c 3c 8b be 6e 9c 6a be
       0.10311782 -0.19032896 -0.27194536 -0.22911236
0000d0 5b 03 df be 27 7e 0b be 0e c8 b5 be 36 77 74 be
       -0.43557248 -0.13622342 -0.35504192 -0.238736
0000e0 cb f2 b7 be 90 b6 20 bd b9 4e 08 bc 78 d4 06 bf
       -0.35927424 -0.039236605 -0.00831955 -0.5266795
0000f0 7d 9c e9 bd af dd a3 be a0 c4 78 3c a9 c7 c9 be
       -0.11406801 -0.3200507 0.015183598 -0.3941014
000100 72 8d 92 be 80 6d b1 be ce e8 3c be 63 86 8c 3b
       -0.2862354 -0.34653854 -0.18448183 0.004288481
000110 a4 83 16 bd da 71 da bd 53 ee 3d be 9e f5 bb bc
       -0.036746636 -0.10666247 -0.18547945 -0.022944268
000120 1e 20 18 be 5e cf d7 bc 49 6e 10 bf 3e 1c 8c be
       -0.14856002 -0.026343998 -0.5641828 -0.27365297
000130 13 44 90 be ff fa d0 b9 22 68 4e be 80 ff 6f be
       -0.28176937 -0.00039859858 -0.20156911 -0.2343731
000140 57 31 18 bf 28 ae 5a bb 50 5a b7 3c b2 a9 a9 bd
       -0.59450287 -0.0033367965 0.022381932 -0.0828432
000150 2c ab 84 bc 98 b9 0f be fa d0 9e be 3a ef 55 bd
       -0.016194902 -0.14035642 -0.3101881 -0.052230097
000160 e5 e3 ff bd 95 a7 9c be 2f e2 6d be 73 4b 8b be
       -0.12494639 -0.30596605 -0.23230813 -0.27206
000170 76 82 bd bb 0c 93 27 be d0 0e b1 be 20 80 b5 be
       -0.0057833744 -0.16364688 -0.34581614 -0.35449314
000180 0b 11 e7 bd 1f a5 ad bc f4 b6 8b bd 31 16 32 be
       -0.112825476 -0.0211969 -0.06822005 -0.17391278
000190 64 25 b3 be db 2a 42 be 16 5b f2 bd 0b 02 b7 be
       -0.34989464 -0.1896166 -0.118337795 -0.35743746
0001a0 ec a7 02 be 15 52 2f be 98 ef 94 be e3 36 ff bd
       -0.1275937 -0.17121156 -0.29089046 -0.12461641
0001b0 f2 42 42 be 57 f3 f9 bd e1 9a f4 be 51 26 7e bc
       -0.1897085 -0.122046165 -0.47774413 -0.015512065
0001c0 7b 9d 4d bd d9 cc c1 be a2 72 3a be 33 93 3c be
       -0.050199013 -0.378516 -0.18207791 -0.18415527
0001d0 fb 39 4a bd 6e 14 e1 be 7e 11 c0 bb f9 3b 0e be
       -0.0493717 -0.439609 -0.00586146 -0.13890065
0001e0 5a 4b a1 be 6b 76 be bd 91 33 85 bd c8 b0 95 be
       -0.315028 -0.0929993 -0.06503976 -0.29236436
0001f0 25 49 05 be 36 91 e1 bd cc 9a 3a be ec 52 d9 bd
       -0.13016184 -0.11014025 -0.18223113 -0.10611519

fc4.weight f4 [64, 128]
000000 b1 f7 aa be eb 43 88 3d 8d 2d 1b bc 5d 3c f9 bd
       -0.333921 0.06653579 -0.009471309 -0.121697165
000010 ae 5e f3 bd d2 d5 1d 3e 36 51 fd 3d b8 e6 f6 3c
       -0.11883293 0.15413597 0.123690054 0.030139312
000020 b8 27 8b bd ae d3 24 bf 65 3f 9d bd e0 36 6e be
       -0.06794685 -0.643855 -0.07678107 -0.2326312
000030 c1 8d e9 3d 93 b2 24 be ad 40 19 be fc 1f ca bd
       0.114039905 -0.16083746 -0.14966078 -0.09869382
000040 78 50 9e 3d 9c 71 74 3d 66 cc 36 3e 57 1a 08 be
       0.07730192 0.05967866 0.1785141 -0.13291298
000050 3a 10 d3 bd fc 07 15 be aa ff 7d be 12 ed 1d bc
       -0.10305829 -0.14553827 -0.2480456 -0.0096390415
000060 64 4c a9 3d ce 78 a4 3c e0 43 42 bb 11 e7 4c 3d
       0.082665235 0.020077135 -0.0029642507 0.05002505
000070 a4 0f 4c bd c1 a5 89 be 6c ee 81 3b 85 d6 13 bd
       -0.049819604 -0.26884273 0.0039651897 -0.036093254
000080 9c 3c b9 bd b2 bb 10 be 75 f1 0d be 56 a3 ab 3d
       -0.090447634 -0.141341 -0.1386164 0.08380763
000090 95 45 b6 3d 60 e0 13 3e 3a a4 bb bc 25 61 5e be
       0.088999905 0.14441061 -0.022905458 -0.21716745
0000a0 95 2c 05 be 86 88 09 3d 3b 58 0b 3c 86 82 b3 3d
       -0.13005288 0.033577465 0.0085049225 0.0876513
0000b0 41 5a 91 bc 03 52 a5 3d 52 2c fe bc 65 c3 f8 bd
       -0.017743232 0.08072283 -0.031026993 -0.121466435
0000c0 3f 72 93 3d 3d 3e 4a be 18 58 48 3e 7e 4a 91 3a
       0.07199525 -0.19750305 0.19564855 0.0011084822
0000d0 79 2b 3c 3e 9b 4f cc 3d fb 95 bd bd 66 71 06 3e
       0.18375959 0.09976121 -0.09257122 0.13129196
0000e0 6e 9f 87 3d f4 4f a9 3d 0a e4 cb bd 75 15 31 3e
       0.06622206 0.08267203 -0.099556044 0.17293341
0000f0 27 c1 d2 bd 73 6b 45 3c b7 8d 90 3d fa 22 57 be
       -0.10290747 0.012049544 0.0705828 -0.21009436
000100 1c a6 1a be e0 3b 23 be 37 cf 74 bd 78 43 03 3e
       -0.15102428 -0.15940809 -0.059767928 0.12818706
000110 e3 8f 7c bd 27 e0 8b 3c 9e 2b 35 bd 73 24 1b 3e
       -0.06166066 0.017074658 -0.04423105 0.15150623
000120 a1 6a 03 3c 8e a0 70 be 32 8e 1f 3c 36 f5 d1 bc
       0.008021028 -0.23498747 0.009738492 -0.025629621
000130 5f f5 bf 3d d0 2c 92 3d a1 e5 b5 3d ac f4 ac bc
       0.09372973 0.071374536 0.08881689 -0.021112762
000140 1c 85 35 3e 4b 09 4e bd 8d f6 be bd a7 4e 15 3d
       0.17726558 -0.05030183 -0.093243696 0.03645196
000150 dd 31 d0 3d b7 dc eb bd ca b4 17 bd 7e ca aa 3d
       0.10165761 -0.115167074 -0.03703765 0.083394036
000160 07 82 d1 3d ab 05 48 3d 7b be cc 3c b0 fa 04 3e
       0.10229879 0.04883353 0.024993172 0.12986255
000170 57 20 08 be 4d a1 0e bb b3 14 bd 3d 01 e3 d8 be
       -0.13293587 -0.0021763623 0.09232464 -0.4236069
000180 21 0f 89 bd 7f f5 72 3d 52 46 92 bd 54 57 93 3d
       -0.06692339 0.059316155 -0.07142319 0.07194391
000190 95 8b 0a 3e 93 6e 14 3e da 7e 17 be 07 74 9c 3d
       0.13529809 0.14495306 -0.14794484 0.07639318
0001a0 b5 73 b8 bd ba 57 b7 bd 15 97 9f bd f6 3b f3 3d
       -0.09006444 -0.089522794 -0.077924885 0.11876671
0001b0 48 ac b6 3d ba 86 ce 3d a6 96 7a bc 56 2a 76 3d
       0.08919579 0.10084291 -0.015294706 0.06009897
0001c0 6c 52 02 3d f0 c4 19 be 6e cb 3c 3e 91 f5 0d 3e
       0.031816885 -0.15016532 0.18436977 0.13863207
0001d0 19 61 88 be c8 c4 1b bd 91 f1 d1 bd b9 9a 6c bd
       -0.2663658 -0.038029462 -0.10251153 -0.057764743
0001e0 bb 07 07 be 49 ac 5d bd 72 4f 4d be 28 88 18 3e
       -0.13186543 -0.054119382 -0.20049837 0.1489569
0001f0 c9 23 39 3e 10 88 22 be 74 c7 3e 3e b4 0a 2c 3d
       0.18080057 -0.15872216 0.18630773 0.042002395
000200 dd 4e 38 be 8c e5 96 bd 33 59 27 3c a0 4a ca bd
       -0.17998834 -0.07368001 0.010214138 -0.09877515
000210 b3 81 3a 3e 91 9b b1 3d aa d5 6e 3e dd b2 0d be
       0.18213539 0.0867225 0.23323694 -0.13837762
000220 cc 62 c1 3d 36 f8 e5 bd e9 70 e4 bd 16 a7 87 bd
       0.09442672 -0.11228983 -0.111543484 -0.06623666
000230 a4 27 f4 ba 3b 4a 9f bd 48 e4 12 3d 66 3e 3a be
       -0.0018627536 -0.0777783 0.035862237 -0.18187866
000240 34 bf fa bd 54 66 2d be 09 ad 4b 3e 78 6d c9 bd
       -0.122435 -0.16933566 0.19890226 -0.09835333
000250 b3 d9 55 3d 58 ab fd 3d bc 11 8d 3d ed a1 d9 3b
       0.052209567 0.12386197 0.06888148 0.0066416175
000260 7f 9f 79 3d 1a ef 2b bd b7 e8 4f be 18 20 a2 bc
       0.060943123 -0.041976072 -0.20303617 -0.019790694
000270 17 ee 75 be 31 9b 7f 3c e9 45 96 3c 1d ac a4 bd
       -0.24016605 0.015600965 0.018343883 -0.080406405
000280 68 93 a0 be 62 6e b5 bd ed 75 6b 3d c7 df a7 bd
       -0.31362462 -0.088589445 0.05748551 -0.08196979
000290 48 ed 43 be 24 c8 98 bc 75 5e 42 be 8f c6 e5 3d
       -0.19133484 -0.018650122 -0.18981345 0.11219513
0002a0 16 8c 42 be 22 b7 3c 3d f2 09 30 bd ee 91 78 be
       -0.18998751 0.046073087 -0.042978235 -0.24274418
0002b0 26 ee 0e 3d ed 09 9e 3d f2 52 5c be f2 68 a0 bd
       0.034895085 0.07716737 -0.21516016 -0.07832517
0002c0 f4 fd 31 3e 2e 3f f4 3d 73 e5 d0 3b 82 0c 96 be
       0.17382032 0.11926113 0.0063750087 -0.29306418
0002d0 01 24 a8 3d 98 d4 32 be be 32 d7 bd cf d4 17 bc
       0.08209992 -0.1746391 -0.10507725 -0.009267046
0002e0 82 a0 f2 bd 8a 5a bb bc a2 81 52 3d 1e 5d 92 3d
       -0.11847021 -0.02287032 0.05139316 0.07146667
0002f0 d0 55 44 bc 76 18 82 be e5 bd 54 bc c1 50 a1 3d
       -0.01198335 -0.25409287 -0.0129847275 0.07876731
000300 13 d1 b2 3c fc d0 77 3d 50 9e a4 be df b0 58 be
       0.02182821 0.060502037 -0.32152033 -0.21161221
000310 22 46 15 be f3 9e ba bd 65 89 80 3d e4 f7 a3 3b
       -0.14577535 -0.091123484 0.06276206 0.005003916
000320 12 1a cb 3d 79 18 b3 3c 22 18 1d be a4 8d a6 be
       0.09917082 0.021862255 -0.15341237 -0.32529938
000330 c7 61 69 bd ba 0d bf be 24 92 7d be 80 c1 bd be
       -0.056978013 -0.3731516 -0.2476278 -0.3706169
000340 bc 85 99 be 91 0d e3 3a 88 73 a5 3e c7 db b9 bc
       -0.29984844 0.0017322769 0.32314706 -0.022687806
000350 d8 f8 ae 3d 9c dd a9 bd c5 ca 04 3e 2f 7b 6e 3d
       0.08543557 -0.08294222 0.12967975 0.058222946
000360 e1 bd 13 bd cc 38 85 3e 61 6a 91 bc 98 e4 88 3d
       -0.036069755 0.26019895 -0.01775092 0.06684226
000370 03 33 6f bd 46 6b 65 bd cd 89 39 3e 37 08 82 be
       -0.058398258 -0.056010507 0.18118973 -0.25396892
000380 00 ef 82 bd bc 8a 4b be 22 ee 63 3b 15 97 43 bd
       -0.06393242 -0.19877142 0.003477939 -0.047751505
000390 e5 97 1c 3d a5 60 fb 3d d2 03 8d 3d 1a b8 63 bc
       0.038230795 0.12274293 0.06885494 -0.013898874
0003a0 52 62 46 3e 4e 3e f4 3d 49 ad c2 3d 9c 2a 3f 3c
       0.19373444 0.11925946 0.09505708 0.011667874
0003b0 3c 0e fa bd 05 a3 6a 3e 2b b5 e8 3d 77 98 36 3e
       -0.12209746 0.2291375 0.1136268 0.17831598
0003c0 0f 5e 03 be 7b e0 b0 3d 6f 1e cd bb 8e a9 03 bc
       -0.1282885 0.08636566 -0.0062597315 -0.00803603
0003d0 db b2 0a be 51 0b f2 3d 26 ed aa bd 23 d5 fe bd
       -0.1354479 0.11818565 -0.08346014 -0.12442996
0003e0 b6 46 16 3c b2 5a 6a be e4 29 47 be 08 be 6c bd
       0.009172132 -0.2288616 -0.19449574 -0.057798415
0003f0 24 ee 2d be 77 da 1b be b8 ba e2 bd f7 e7 01 be
       -0.16985375 -0.15220056 -0.1107077 -0.12686144

fc4.bias f4 [64]
000000 0b 45 3e 3c 5c b1 ac be 67 63 cc bd d7 01 35 bf
       0.011613141 -0.33729064 -0.09979897 -0.7070593
000010 3c f3 d9 bd 7e f1 59 be cd 23 93 be 77 98 9b bc
       -0.106420964 -0.21283528 -0.2873825 -0.0189936
000020 b8 4c 8a 3d e8 c6 46 3e b0 20 c5 3d b3 98 cb be
       0.06752914 0.19411814 0.09625375 -0.39764938
000030 f0 18 90 bd 66 76 c8 bd 0a 5c 43 be e4 c4 5d be
       -0.070360065 -0.09788208 -0.19078079 -0.21657139
000040 e5 f3 95 be be 1c fd be 8e 7b ea bb 54 f6 2c bd
       -0.2928764 -0.4943599 -0.007155842 -0.042227104
000050 da f5 e7 3d 59 0b ac 3c 7a 33 ff bd 78 4e 07 3e
       0.11326189 0.021001505 -0.1246099 0.13213527
000060 9b f4 b4 be 14 ab 74 3d 5c a1 56 be a5 2e 25 bd
       -0.3534287 0.059733465 -0.20959991 -0.040327687
000070 a0 c8 eb be 7e c5 5e be 25 e6 c1 be de 44 d3 be
       -0.46051502 -0.21755025 -0.378709 -0.4126348
000080 1e b6 9c 3d 7e ca 88 be 6e 0d be bc d2 d5 5d be
       0.076519236 -0.2671699 -0.023199763 -0.21663597
000090 16 56 bc bc ee 2a c2 be 50 11 75 bb 8e 9f 22 be
       -0.022990268 -0.37923378 -0.0037394352 -0.15881178
0000a0 0c b3 50 3d b7 f2 94 be da 4e 33 be 2b 91 09 bf
       0.050952002 -0.29091427 -0.17510548 -0.53737134
0000b0 d9 1c 2c be 9e 99 d7 be d0 1b c0 be e8 94 19 bd
       -0.1680788 -0.42109388 -0.3752122 -0.037495524
0000c0 7f f4 fa 3d a0 c3 68 be 59 cc 01 be a3 c2 0b bf
       0.12253665 -0.22730875 -0.12675609 -0.5459387
0000d0 3c 92 fc be e8 7d 3e be 06 d4 c4 3d 47 99 e2 bb
       -0.49330318 -0.18602717 0.09610753 -0.0069152447
0000e0 f4 05 06 be 0f 9d 01 bf 74 0c 0d bd 00 be 46 be
       -0.13088208 -0.5063028 -0.034435704 -0.19408417
0000f0 b2 92 8a be f1 ec 3b be 4f 25 db be 46 6b bc be
       -0.27065045 -0.18352105 -0.42801902 -0.36800593
