qnetwork.pth (torch_old, 787779 bytes, 17 tensors)

fc1.weight f4 [512, 37]
0	0xbd0f7af1	-0.035029355
1	0x3e64e2b1	0.22352101
2	0xbdc7c24a	-0.097538546
3	0xbe989333	-0.29799804
4	0xbdf2506d	-0.11831746
5	0x3e788b6e	0.24271938
6	0x3b8334a9	0.0040040803
7	0x3e252d81	0.1613064
8	0xbe85270e	-0.2600636
9	0x3e3923ab	0.18080013
10	0x3d40ad4b	0.047040265
11	0xbc21138f	-0.009831323
12	0xbe2b8a37	-0.16751944
13	0xbdbb3ed0	-0.0914284
14	0x3d881b85	0.06645874
15	0xbe2bf33e	-0.16792008
16	0x3d41c184	0.04730369
17	0x3eb8232d	0.35964337
18	0xbcfbf7d1	-0.030757817
19	0x3e09f5c9	0.13472666
20	0x3c6e28f5	0.014536132
21	0x3ebe6556	0.37186688
22	0xbd241ed7	-0.040068474
23	0x3e307249	0.17231096
24	0xbd117702	-0.035513885
25	0x3e5e5e0d	0.21715565
26	0x3e28a2b1	0.16468312
27	0xbe8cd7ed	-0.27508488
28	0xbe9d7b60	-0.3075819
29	0xbec53282	-0.38515097
30	0xbd91ebce	-0.07125054
31	0x3e7c1724	0.24618202
32	0xbc3d4adb	-0.0115534915
33	0xbdcaa92b	-0.098955475
34	0xbdd72bf7	-0.105064325
35	0xbdc0739e	-0.09397052
36	0x3c8939f7	0.016751273
37	0x3cc9ba83	0.024625069
38	0x3e3980a2	0.18115476
39	0x3d8c1abf	0.06841039
40	0xbd1c6add	-0.03818785
41	0xbea82b43	-0.32845506
42	0xbdc8620a	-0.097843245
43	0x3b5ee060	0.003400825
44	0xbe3d1538	-0.18465126
45	0xbd95c451	-0.07312835
46	0x3e88477d	0.2661704
47	0x3d4b0d6f	0.04957336
48	0xbe304589	-0.17214026
49	0x3dd3c91c	0.10341093
50	0xbbaa92cb	-0.0052054874
51	0x3e834277	0.25636646
52	0xbb8b0672	-0.0042427117
53	0x3e413493	0.18867712
54	0x3d905014	0.07046524
55	0xbe8fadbc	-0.28062236
56	0xbf43f4b3	-0.76545256
57	0xbd93f062	-0.07223584
58	0xbe1c3dd5	-0.15257962
59	0xbdf3184c	-0.11869869
60	0xbd432995	-0.047647078
61	0x3b815079	0.0039463607
62	0xbeafc39d	-0.3432893
63	0x3dbf1f74	0.09332171
64	0x3e4fc018	0.20288122
65	0xbe76933f	-0.24079607
66	0xbe560345	-0.20899685
67	0xbe18eb7f	-0.14933585
68	0x3d70e695	0.05881365
69	0x3e7456ee	0.23861286
70	0xbe0d4710	-0.1379664
71	0xbd63b0f4	-0.055588678
72	0xbdb7694e	-0.08955632
73	0x3d006259	0.03134379
74	0x3e6a7cf2	0.22899225
75	0x3d8c3d78	0.06847662
76	0x3d9970e4	0.07492235
77	0x3c9c1988	0.019055143
78	0x3d9dc0a3	0.07702758
79	0xbd8a976a	-0.06767161
80	0xbe292f3f	-0.16521929
81	0x3ea1d00d	0.31604043
82	0xbddef752	-0.10887016
83	0xbf31eeca	-0.6950499
84	0x3c9c070a	0.019046325
85	0xbd3bffba	-0.045898177
86	0x3dafddbd	0.08587215
87	0xbd5054c3	-0.050862085
88	0x3cf64c02	0.03006554
89	0xbd784ed0	-0.060622036
90	0x3db1c05a	0.08679266
91	0x3d6ae7ee	0.05735009
92	0x3da64639	0.08118863
93	0x3e1fe649	0.1561519
94	0xbeb930e3	-0.3617011
95	0x3d9c95f3	0.07645788
96	0x3e57c60d	0.21071644
97	0x3df34a43	0.11879399
98	0xbe5c5577	-0.21516977
99	0xbde69ab2	-0.112599745
100	0x3e587708	0.21139157
101	0x3e415209	0.1887895
102	0xbbce318c	-0.0062925275
103	0x3e5c74cc	0.2152893
104	0xbe47cc02	-0.19511417
105	0x3c33b525	0.010968481
106	0xbdab9292	-0.083775654
107	0xbdc380a2	-0.09546019
108	0x3dbee84f	0.09321653
109	0xbd2572b2	-0.040392585
110	0xbd04e004	-0.0324402
111	0x3e48d4a1	0.19612361
112	0xbe46f4a4	-0.1942926
113	0x3e03de5c	0.12877792
114	0x3de2b539	0.11069722
115	0xbf29a64d	-0.6626938
116	0xbd14ec7a	-0.036358334
117	0x3d70688e	0.05869346
118	0xbce191a3	-0.027535265
119	0x3e96f66f	0.2948489
120	0x3ef88e6c	0.4854616
121	0xbb7e8b56	-0.0038840375
122	0xbd86d187	-0.06582933
123	0x3e29840d	0.1655428
124	0xbe600c64	-0.21879727
125	0x3b840f33	0.004030132
126	0xbda82b54	-0.08211389
127	0x3d9b4a62	0.07582547
128	0xbb6549a1	-0.0034986513
129	0xbe91b4a6	-0.28458136
130	0xbe84d489	-0.259434
131	0x3da64390	0.08118355
132	0xbd8602f8	-0.06543535
133	0xbdaadc2c	-0.08342776
134	0x3e0f4c8f	0.13994049
135	0xbe92972b	-0.28630957
136	0x3db50dcc	0.08840522
137	0xbcb6c80c	-0.022312187
138	0xbc08ee69	-0.008357623
139	0xbe38d862	-0.18051293
140	0xbd896ae0	-0.06709838
141	0x3e1cb39d	0.15302892
142	0x3efec10d	0.4975666
143	0xbd9516c5	-0.072797336
144	0xbf000caf	-0.50019354
145	0xbe8fe3c0	-0.28103447
146	0x3d206e7f	0.039167877
147	0x3c83a8b5	0.016071657
148	0x3dd715ee	0.1050223
149	0xbe6cb2c9	-0.23115076
150	0xbe5cfeac	-0.21581525
151	0xbe5e915f	-0.21735142
152	0xbd9add2e	-0.07561718
153	0x3e3ad6b1	0.18245961
154	0x3eac282f	0.33624408
155	0xbed5b490	-0.4173932
156	0x3e54b776	0.2077311
157	0xbf65d2b6	-0.89774644
158	0xbc78f29a	-0.0151945595
159	0xbe248434	-0.16066056
160	0x3df99aba	0.12187715
161	0xbde6c1dd	-0.11267445
162	0xbebd7c15	-0.3700873
163	0xbe199ba5	-0.1500078
164	0x3ce32db1	0.027731748
165	0x3c72d50c	0.014821302
166	0xbdb19246	-0.086704776
167	0x3dfe7c4f	0.12426054
168	0xbe1d0bac	-0.15336484
169	0xbe88b677	-0.2670171
170	0x3e922790	0.2854581
171	0x3c2ecce4	0.010668967
172	0x3df9e11a	0.12201138
173	0x3c5ce504	0.013482336
174	0xbdd0a94d	-0.101885416
175	0x3e7e9ba2	0.24864057
176	0xbe09fe14	-0.1347583
177	0xbdcef1f6	-0.10104744
178	0x3e56f2b3	0.2099102
179	0xbe0a5f70	-0.13512969
180	0xbd695742	-0.05696798
181	0x3d9d18a0	0.076707125
182	0x3ed13199	0.40858153
183	0x3d7bf4a9	0.061512623
184	0x3c93e1dd	0.018052036
185	0x3dceb549	0.10093171
186	0xbe4543d9	-0.19264163
187	0xbcaa5dd5	-0.020796696
188	0xbe126ecf	-0.14300083
189	0x3e42a1e6	0.19007072
190	0x3de4f04c	0.111786455
191	0x3d45d505	0.048298854
192	0xbe98ba40	-0.29829597
193	0x3e39f6a9	0.181605
194	0xbe8c3ed1	-0.27391675
195	0xbcf54643	-0.02994073
196	0xbd9a5784	-0.075362235
197	0xbdd4efea	-0.103973225
198	0xbe306735	-0.1722687
199	0xbc956218	-0.018235251
200	0xbba75f5b	-0.005107803
201	0x3e351559	0.17683925
202	0xbe5a0384	-0.21290404
203	0x3da9309e	0.08261226
204	0x3caa9ecf	0.020827679
205	0x3e1390ba	0.14410678
206	0xbe063217	-0.13105045
207	0x3c4bed86	0.012446767
208	0x3d85e449	0.065376826
209	0x3e6b7d58	0.22997034
210	0xbdf32b03	-0.11873438
211	0xbd90042a	-0.07032044
212	0x3cc74f56	0.024329823
213	0x3e03f933	0.1288803
214	0x3efae0a6	0.48999518
215	0xbb198b20	-0.0023428872
216	0xbd7389d9	-0.059457634
217	0xbe37306f	-0.1788957
218	0x3e821a39	0.2541063
219	0x3d829580	0.06376171
220	0x3d14d0ca	0.03633193
221	0x3d8c0f89	0.068389006
222	0x3e1f5362	0.15559152
223	0xbd1938ed	-0.037407804
224	0xbe82f570	-0.2557788
225	0x3de7c461	0.11316753
226	0xbed825a5	-0.4221622
227	0xbd83a9a9	-0.064288445
228	0xbe7e016b	-0.24805228
229	0x3d515a2d	0.05111139
230	0x3e7f3b47	0.24924956
231	0x3f4a2336	0.7895998
232	0x3dc2222f	0.09479176
233	0x3d7d5a9e	0.061853997
234	0x3df64cbf	0.12026357
235	0xbe4c10ba	-0.19928256
236	0x3e5e98e4	0.2173801
237	0x3cc42251	0.023942145
238	0xbe03e65e	-0.12880847
239	0x3d3150b7	0.043289866
240	0xbd95ce8a	-0.07314785
241	0x3e9ba92a	0.304025
242	0xbcb44b26	-0.02200849
243	0xbde49260	-0.11160731
244	0x3bb681b7	0.0055696624
245	0x3d1cbbcc	0.038265035
246	0x3f0ed118	0.557878
247	0xbe4029c2	-0.1876593
248	0x3db440c2	0.08801414
249	0xbc7c4738	-0.015397839
250	0xbd94f14d	-0.07272587
251	0x3de77562	0.11301686
252	0x3e3234de	0.1740298
253	0xbd7453d4	-0.059650257
254	0xbd80bd81	-0.06286145
255	0xbe2f4af6	-0.17118439

fc1.bias f4 [512]
0	0xbdc8eeeb	-0.09811195
1	0x3d7edc93	0.062222075
2	0x3e09f501	0.13472368
3	0x3bdd75d0	0.006758429
4	0x3d202a31	0.039102737
5	0xbe22b56a	-0.15889516
6	0x3dba9c07	0.09111791
7	0xbd2f51e8	-0.04280272
8	0xbd0ae2f1	-0.033907834
9	0x3da9a736	0.08283846
10	0xbe2ae3d1	-0.16688468
11	0x3dec9c0b	0.115532
12	0x3dc6739f	0.09690022
13	0xbdd39ecd	-0.10333023
14	0xbd898c92	-0.06716265
15	0xbe0827cd	-0.13296433
16	0x3df6d667	0.12052613
17	0x3c7c69dc	0.015406098
18	0xbc8806e1	-0.016604843
19	0x3e2bc134	0.1677292
20	0xbc673d04	-0.014113668
21	0x3df32727	0.11872702
22	0x3c4526e4	0.012033198
23	0x3c49c176	0.012314191
24	0xbdef06d8	-0.11671227
25	0xbde723fa	-0.11286159
26	0xbde234ac	-0.110452026
27	0x3e0e0d17	0.13872181
28	0x3e171af9	0.14756383
29	0x3e25611b	0.16150324
30	0x3daaa6a1	0.08332563
31	0x3ce9cca5	0.028539965
32	0xbe051ebe	-0.13000008
33	0xbe040aa2	-0.12894681
34	0xbd607f8b	-0.054809134
35	0xbda25773	-0.07926836
36	0xbdd1c8f3	-0.10243406
37	0xbe2662f6	-0.16248688
38	0xbcd4769a	-0.02593546
39	0xbd8fd382	-0.07022764
40	0xbdb6cf30	-0.08926237
41	0x3b486cef	0.0030582508
42	0x3c6438ff	0.013929605
43	0x3e0ef9f6	0.1396254
44	0x3dee92ae	0.11649071
45	0x3d9bd72d	0.07609401
46	0xbe10132b	-0.14069812
47	0x3b1a2430	0.0023520105
48	0xbd734e2c	-0.059400722
49	0x3e1b1b0e	0.1514704
50	0x3de2e446	0.11078696
51	0xbe0b1ea5	-0.13585909
52	0x3d319881	0.04335833
53	0xbd466335	-0.048434455
54	0xbcfbc497	-0.03073339
55	0xbe348642	-0.1762934
56	0x3d3fa0f9	0.046784375
57	0xbdf83a58	-0.12120503
58	0xbdd295e3	-0.10282495
59	0x3d210787	0.03931382
60	0xbda2d96a	-0.07951625
61	0x3de927cc	0.11384544
62	0xbd56b80b	-0.05242161
63	0x3c8ae27f	0.016953705
64	0x3dc1a685	0.09455589
65	0xbe17e604	-0.14833838
66	0x3e321bef	0.17393468
67	0x3daf65ed	0.08564363
68	0x3da336c8	0.07969433
69	0xbe65b66c	-0.2243287
70	0x3e2030a9	0.15643562
71	0xbdb9e842	-0.09077503
72	0x3dd6fe3a	0.104977086
73	0x3e463231	0.19355084
74	0xbcc67466	-0.024225425
75	0x3d79cdef	0.06098741
76	0xbdce3b68	-0.100699246
77	0x3d83fa96	0.0644428
78	0xbd6d1b9a	-0.05788765
79	0x3d11c8cf	0.035591897
80	0xbdd04858	-0.101700485
81	0x3de1a1a9	0.11017162
82	0xbdfd958f	-0.12382042
83	0xbd3ad7ef	-0.045616087
84	0x3daf784f	0.08567869
85	0x3e20fa37	0.1572045
86	0xbd596279	-0.053072426
87	0xbd255e95	-0.040373404
88	0x3dd4c1df	0.103885405
89	0xbde0f2d5	-0.109838165
90	0xbc4f3ab1	-0.01264827
91	0xbb397b09	-0.0028302094
92	0xbd829f13	-0.06377997
93	0x3e5e8e3d	0.21733947
94	0x3d83ab9a	0.06429215
95	0xbbe14b33	-0.0068754195
96	0x3bfe73b1	0.0077652563
97	0xbd292ab6	-0.041300498
98	0x3ce3f31a	0.02782588
99	0xbcc3a277	-0.02388118
100	0x3d54d77c	0.051963314
101	0xbc524933	-0.012834835
102	0x3c50470e	0.012712253
103	0xbda34caa	-0.07973607
104	0xbde6fa0b	-0.11278161
105	0x3dc2ad4a	0.095057085
106	0xbb60f988	-0.003432842
107	0xbe221377	-0.15827738
108	0x3e054ce4	0.13017613
109	0x3e2dc3f6	0.16969284
110	0xbd97810e	-0.07397662
111	0x3d27a165	0.040925402
112	0xbdfbd942	-0.12297298
113	0x3dc1663b	0.09443327
114	0xbe0ba44a	-0.1363689
115	0x3e0abe20	0.1354909
116	0x3a831de2	0.0010003413
117	0x3dfd57fe	0.12370299
118	0xbda185f8	-0.07886881
119	0xbd8c3928	-0.06846839
120	0xbcddc484	-0.027071245
121	0x3da0e969	0.078570195
122	0xbd8d4b59	-0.06899137
123	0x3d81e5fd	0.06342695
124	0x3e03cc8c	0.12870997
125	0xbba2d049	-0.004968677
126	0xbdb929e3	-0.090411924
127	0xbe16edc4	-0.14739138
128	0x3cdedacf	0.027203945
129	0x3e130079	0.14355649
130	0xbe42ffd1	-0.19042899
131	0xbe038d2c	-0.12846822
132	0xbde9da71	-0.114186175
133	0x3dc2b2f7	0.09506791
134	0xbd85b0cd	-0.06527863
135	0x3e23f30f	0.16010688
136	0xbdc9a4a9	-0.098458596
137	0x3cf3c9d6	0.029759329
138	0x3b6ec282	0.0036431854
139	0xbdb09954	-0.08622995
140	0x3d6df6d2	0.058096714
141	0x3e472de2	0.19451097
142	0xbdb85781	-0.09001065
143	0x3da62d1f	0.08114075
144	0xbe35f78f	-0.17770217
145	0xbdb019f2	-0.08598699
146	0x3c39efe2	0.011348696
147	0x3e1c9c3c	0.15293974
148	0x3c912556	0.017717998
149	0x3dbef7dc	0.09324619
150	0x3d50d101	0.05098057
151	0x3e2cc3c0	0.16871548
152	0x3d8126b1	0.06306208
153	0xbe2b1933	-0.16708831
154	0xbdad4216	-0.084598705
155	0xbe223ee1	-0.15844299
156	0x3d5843a8	0.052798897
157	0xbd73beb7	-0.05950805
158	0xbd37038b	-0.044681113
159	0xbe31b45f	-0.17353962
160	0xba989f36	-0.0011644128
161	0xbddab737	-0.10679477
162	0xbe60bc47	-0.21946822
163	0xbccb692a	-0.02483042
164	0xbd9fce92	-0.07803072
165	0xbe075e0a	-0.13219467
166	0x3d84fce9	0.06493551
167	0x3da2cd15	0.079492725
168	0xbe0450ae	-0.12921402
169	0xbcc26087	-0.023727668
170	0x3e28ea13	0.16495542
171	0x3db4a191	0.08819879
172	0xbcfc0f55	-0.03076903
173	0xbcc7773c	-0.024348848
174	0xbda5201b	-0.08062764
175	0xbe3643df	-0.17799328
176	0xbdb41270	-0.08792579
177	0x3e45773e	0.19283769
178	0x3db61d01	0.08892251
179	0xbd9135f1	-0.07090367
180	0x3c95edc1	0.018301846
181	0xbd16f98b	-0.036859076
182	0xbcada653	-0.021197474
183	0x3d993e94	0.07482639
184	0x3ddc8190	0.107668996
185	0x3d67c06f	0.056580003
186	0xbd9412cb	-0.07230147
187	0xbc257166	-0.010097837
188	0xbdd08168	-0.10180932
189	0x3b5e6a40	0.0033937842
190	0x3e20e836	0.15713581
191	0x3d271909	0.04079536
192	0xbbbbe765	-0.0057343715
193	0xbd937670	-0.072003245
194	0x3ca156a8	0.019694641
195	0x3d760893	0.06006677
196	0x3cf51f8c	0.02992227
197	0xbe31b2d0	-0.17353368
198	0x3e1c9a10	0.15293145
199	0xbd543d3a	-0.051816203
200	0x3dd42463	0.10358503
201	0xbd1f8ede	-0.03895461
202	0x3ba31455	0.004976789
203	0x3d09e057	0.033661213
204	0xbdfd71bd	-0.123752095
205	0x3cc4a971	0.024006577
206	0xbdbe2548	-0.092844546
207	0xbd99aad4	-0.07503286
208	0x3e28a48e	0.16469023
209	0x3d4ddaf3	0.050257634
210	0x3d39f465	0.04539909
211	0x3e23e535	0.16005404
212	0x3d510f21	0.05103982
213	0x3dc67071	0.09689415
214	0xbda3c3f2	-0.07996358
215	0x3da20b90	0.079123616
216	0x3c81b5ae	0.015833702
217	0xbc00eede	-0.00786945
218	0x3e16b874	0.14718801
219	0xbe13dac9	-0.14438929
220	0xbc6d3127	-0.014477051
221	0xbd883114	-0.06649986
222	0x3e1998f9	0.1499976
223	0x3c69f057	0.014278493
224	0x3d698dbb	0.05701993
225	0x3d7424da	0.059605457
226	0x3df84ae9	0.12123663
227	0x3bedb708	0.007254485
228	0xbcb0f4db	-0.021601131
229	0x3d209896	0.039208017
230	0xbdff47db	-0.12464877
231	0x3c2f66c8	0.010705657
232	0xbe40c676	-0.18825707
233	0x3cd1f126	0.025627684
234	0x3d872cb3	0.066003226
235	0xbd83cff5	-0.06436149
236	0x3c20bf74	0.009811271
237	0x3d97f8e9	0.07420523
238	0x3cb771d2	0.022393141
239	0xbdb240dd	-0.08703778
240	0x3ddd5e56	0.10809009
241	0xbd841aee	-0.06450449
242	0x3c901ec8	0.017592803
243	0x3d326b66	0.043559454
244	0xbcb44472	-0.022005294
245	0xbe34bc30	-0.17649913
246	0x3c7f5e42	0.015586438
247	0x3dcf7f89	0.10131747
248	0x3d16c501	0.03680897
249	0x3de55cc8	0.11199337
250	0x3da95ce3	0.0826967
251	0xbbc78cd5	-0.0060897865
252	0x3e0136b3	0.12618522
253	0xbd33a227	-0.043855812
254	0x3d6618e1	0.05617607
255	0xbd60fc6b	-0.054928225

fc2.weight f4 [256, 512]
0	0x3e23a966	0.15982589
1	0xbe96d6e5	-0.29460827
2	0x3d0c818f	0.034303244
3	0xbdb456c8	-0.08805615
4	0xbe73b21c	-0.23798412
5	0xbf0dea93	-0.55436057
6	0x3e5db420	0.21650743
7	0x3d38985d	0.04506718
8	0xbea853ee	-0.32876533
9	0xbd19498a	-0.037423648
10	0xbe805aac	-0.25069177
11	0xbe7332d1	-0.23749854
12	0x3e277a71	0.16355301
13	0x3d93322b	0.07187303
14	0xbcbbff9d	-0.022949034
15	0x3df03fea	0.11730941
16	0x3ce25a09	0.027630823
17	0xbd97126e	-0.07376562
18	0x3e283d99	0.16429748
19	0x3ccbd81a	0.024883319
20	0xbec44761	-0.38335708
21	0xbda6c838	-0.081436574
22	0xbe81524f	-0.2525811
23	0x3df8d67f	0.12150287
24	0xbdbcc76b	-0.092177235
25	0xbd31f1b8	-0.04344341
26	0xbdfba83c	-0.122879475
27	0xbd059116	-0.032609068
28	0xbe65e6f9	-0.2245139
29	0xbd690e08	-0.056898147
30	0xbc1d0b6a	-0.009585241
31	0x3efb4db2	0.49082714
32	0xbc6a7674	-0.014310468
33	0x3e613628	0.21993315
34	0x3e14caab	0.14530437
35	0x3e451319	0.19245566
36	0x3df5ac5b	0.11995765
37	0x3d8613ba	0.06546731
38	0x3d20c5e9	0.03925124
39	0x3be7eb43	0.007077606
40	0x3d7e9edd	0.062163223
41	0xbdd310cc	-0.10305938
42	0xbded3c5f	-0.115837805
43	0x3d01052a	0.031499065
44	0x3dca4d95	0.09878079
45	0x3e220df9	0.15825643
46	0xbe48c353	-0.1960576
47	0xbeaefa2e	-0.34175247
48	0xbdf522e1	-0.11969543
49	0x3dc025e4	0.09382227
50	0x3d1d1188	0.038346797
51	0xbce424aa	-0.027849514
52	0xbdce12d6	-0.100621864
53	0xbc55b5af	-0.013043805
54	0x3d9a7367	0.075415425
55	0x3daecbe4	0.08534983
56	0xbe8f4256	-0.27980298
57	0x3c0cd997	0.008596799
58	0xbdeb8024	-0.1149905
59	0xbdcc3528	-0.09971076
60	0xbd458386	-0.048221134
61	0xbe4304c1	-0.19044782
62	0xbe9081fb	-0.28224167
63	0x3dd3aa9a	0.10335274
64	0x3daa1915	0.08305565
65	0xbd409957	-0.047021236
66	0xbc70a4a9	-0.014687696
67	0x3e1383c4	0.14405733
68	0x3e862f82	0.2620812
69	0xbe20aa1f	-0.15689896
70	0xbd5c0db8	-0.05372402
71	0x3da33bf0	0.079704165
72	0xbe412ac6	-0.18863973
73	0x3e2d0fee	0.16900608
74	0x3e21300a	0.15740982
75	0xbe5d555b	-0.21614592
76	0xbd5fc3fa	-0.054630257
77	0xbeb373d2	-0.350493
78	0xbf04491b	-0.5167405
79	0xbd376f94	-0.044784144
80	0xbdd00795	-0.10157696
81	0xbd82ad00	-0.063806534
82	0xbdc2de79	-0.095150895
83	0xbc9d0b28	-0.019170359
84	0xbcd9e8e4	-0.026600309
85	0xbe35c5d7	-0.17751251
86	0xbd5cab37	-0.05387422
87	0x3e2e11f9	0.16999044
88	0xbd3d6f27	-0.04624858
89	0xbb3396dc	-0.0027403152
90	0x3c4404c3	0.011964026
91	0x3e1fb1c0	0.1559515
92	0xbe813760	-0.2523756
93	0x3e6f7066	0.2338272
94	0xbd2a2f49	-0.041549
95	0xbc4cd309	-0.012501487
96	0xbe8402dd	-0.25783435
97	0x3e7e2021	0.24816944
98	0x3e4027de	0.18765208
99	0x3e1efd42	0.15526298
100	0x3e33fec4	0.17577654
101	0x3da33590	0.079692006
102	0xbd888cda	-0.0666749
103	0x3c4d5e50	0.012534693
104	0x3e409b05	0.18809135
105	0x3deaa538	0.11457294
106	0x3e04cf79	0.1296977
107	0xbd3a7bf5	-0.04552837
108	0xbd1f4ff9	-0.038894627
109	0x3e81f337	0.2538087
110	0xbeefe5f8	-0.4685514
111	0xbd47e8a7	-0.04880586
112	0x3e3f00f2	0.18652704
113	0xbdb692f4	-0.08914748
114	0x3d93ec17	0.07222765
115	0x3cddcfb6	0.027076583
116	0xbdf81385	-0.12113098
117	0xbdcb6726	-0.099317834
118	0xbc13f899	-0.009031438
119	0xbe2a99ff	-0.16660307
120	0xbdd70ee3	-0.10500886
121	0xbd899f38	-0.06719822
122	0xbd91d084	-0.07119849
123	0xbca66a7a	-0.020314444
124	0xbdfe77c7	-0.124251895
125	0xbebada42	-0.36494642
126	0x3e6f889c	0.23391956
127	0x3c81ede2	0.015860502
128	0x3ddcee66	0.107876584
129	0x3d3359ef	0.04378694
130	0x3da592ec	0.08084664
131	0xbdf8234e	-0.12116109
132	0x3da15a56	0.07878558
133	0xbbca7b6c	-0.006179264
134	0x3e54e142	0.20789054
135	0xbccd2484	-0.025041826
136	0xbdb74478	-0.08948606
137	0xbd6bd7f7	-0.057579007
138	0xbd3d0cca	-0.046154775
139	0x3c166b06	0.00918079
140	0x3e040bd1	0.12895133
141	0xbdf20d5a	-0.11818953
142	0xbe8f44ef	-0.2798228
143	0xbd4db51f	-0.05022156
144	0xbd93171c	-0.07182142
145	0x3ca24308	0.019807354
146	0x3d7b1580	0.0612998
147	0xbc79d19a	-0.015247727
148	0xbe2806af	-0.164088
149	0x3dd770e8	0.10519582
150	0xbd981d81	-0.074275024
151	0x3e7b5d04	0.24547201
152	0xbdfc0b5c	-0.12306854
153	0x3e2fe2c1	0.17176344
154	0xbbc6324c	-0.0060484763
155	0xbe2bea82	-0.16788676
156	0x3e4fe6c9	0.20302881
157	0x3d11432e	0.03546446
158	0x3d54a694	0.051916674
159	0xbc6904ef	-0.014222368
160	0xbbaf8405	-0.005356314
161	0xbdec0763	-0.115248464
162	0xbe9d87b7	-0.30767605
163	0xbddf75d5	-0.109111466
164	0xbddf9001	-0.109161384
165	0x3e9f55b4	0.31120074
166	0x3b1bc077	0.002376584
167	0x3daea6ec	0.085279316
168	0xbe76bf75	-0.24096473
169	0xbd0478b5	-0.032341678
170	0xbe495544	-0.19661433
171	0x3cda86bd	0.026675576
172	0x3e13c4e8	0.14430583
173	0xbe4a3242	-0.19745734
174	0xbda2c6f8	-0.079481065
175	0xbed002f6	-0.4062726
176	0xbd96118d	-0.07327566
177	0xbc4c0832	-0.012453126
178	0x3de3c959	0.111223884
179	0x3cb1ccec	0.02170416
180	0xbe44309b	-0.19159167
181	0xbdcb5f04	-0.09930232
182	0xbd0a9a6d	-0.03383868
183	0xbe501002	-0.20318606
184	0x3dfef267	0.12448578
185	0x3e0de958	0.13858545
186	0x3ea9e8f5	0.33185545
187	0xbd9183aa	-0.07105191
188	0xbe183f47	-0.14867888
189	0x3df8ab9f	0.12142109
190	0x3dafed3f	0.08590173
191	0x3b6185d3	0.003441204
192	0xbdfbb317	-0.12290018
193	0x3b7a6e4e	0.003821272
194	0x3e8c801b	0.27441487
195	0xbda01ebc	-0.07818362
196	0xbcf2b137	-0.029625518
197	0x3e8a4ab3	0.27010116
198	0xbe45651a	-0.19276848
199	0xbcc9299d	-0.024555976
200	0x3e1bda66	0.15220031
201	0x3dd9f3f0	0.106422305
202	0xbd50239e	-0.050815217
203	0xbc0d16d6	-0.008611402
204	0xbea6bbba	-0.325651
205	0x3dd6d0a9	0.104890175
206	0xbdb2ac18	-0.087242305
207	0xbbc4615c	-0.0059930515
208	0x3dcf51c0	0.101230145
209	0x3e3ded73	0.18547611
210	0xbe7723b2	-0.2413471
211	0x3dac48a9	0.08412296
212	0xbdee9307	-0.11649137
213	0xbec3dbe2	-0.38253695
214	0xbe03465a	-0.12819806
215	0xbd49c654	-0.049261406
216	0xbe8141ac	-0.25245416
217	0x3c82209f	0.015884696
218	0xbd12c43c	-0.035831675
219	0xbe2b4e50	-0.16729093
220	0x3d5c15cf	0.053731736
221	0xbc0d27e7	-0.0086154705
222	0xbdf7638d	-0.12079535
223	0xbce66d32	-0.02812824
224	0x3de48bb0	0.11159456
225	0xbe44055e	-0.19142672
226	0x3d7f58c5	0.062340517
227	0xbd170630	-0.036871135
228	0x3d013fe4	0.03155507
229	0xbdedbf51	-0.11608756
230	0xbeef4a77	-0.467365
231	0x3daf849c	0.08570215
232	0xbe58531f	-0.21125458
233	0xbe14b969	-0.14523853
234	0xbd91a248	-0.07111031
235	0x3e23844c	0.15968436
236	0xbe1973eb	-0.14985625
237	0x3d11628e	0.03549438
238	0xbc8d69b2	-0.017262314
239	0xbda52677	-0.08063977
240	0xbf0472d6	-0.51737726
241	0xbd9ed85d	-0.07756112
242	0xbe12fd24	-0.14354378
243	0xbe2672e2	-0.16254762
244	0xbda208ba	-0.07911821
245	0xbdfbda91	-0.122975476
246	0xbdb4c42d	-0.0882648
247	0xbdd967b4	-0.10615483
248	0xbda94c30	-0.08266485
249	0x3eb8eeb0	0.36119604
250	0x3e4866b1	0.19570424
251	0x3e6ef2e8	0.23334849
252	0x3d51761e	0.051138036
253	0x3e003a26	0.12522182
254	0x3cd874a8	0.026422814
255	0x3c39070b	0.011293183

fc2.bias f4 [256]
0	0xbe1f7213	-0.1557086
1	0xbdfa208b	-0.12213238
2	0xbcd1aef7	-0.025596125
3	0xbd960964	-0.0732601
4	0xbe2cbcf9	-0.16868962
5	0xbe214fbc	-0.15753073
6	0xbcd8f5f1	-0.026484462
7	0xbdd82642	-0.10554172
8	0xbe31f64c	-0.17379111
9	0xbdc858a5	-0.097825326
10	0xbe10c18a	-0.1413633
11	0x3d1d4cb0	0.038403213
12	0xbe5c8abe	-0.21537301
13	0xbd3bd687	-0.045858886
14	0xbe326d81	-0.17424585
15	0xbc8cc031	-0.017181488
16	0xbcb8b658	-0.022547886
17	0xbad2964f	-0.0016066524
18	0x3c8ed335	0.017434696
19	0xbcec841c	-0.028871588
20	0xbcabe073	-0.02098105
21	0x3922c3b1	0.00015522425
22	0xbd9074f3	-0.07053556
23	0xbcb020eb	-0.021500072
24	0xbd478b1d	-0.048716653
25	0xbdd282e1	-0.102788694
26	0xbdd9e944	-0.10640195
27	0xbd2d3831	-0.042289916
28	0xbd90d034	-0.070709616
29	0xb9b55f72	-0.00034594123
30	0xbe514f68	-0.20440447
31	0xbd9fa4da	-0.07795115
32	0xbd2ff812	-0.042961188
33	0xbe0d78d2	-0.1381562
34	0xbddb7be4	-0.1071699
35	0xbe209040	-0.15680027
36	0xbd8e051e	-0.0693457
37	0xbcb6ad31	-0.022299381
38	0xbd6408d3	-0.055672478
39	0xbe102bfb	-0.14079277
40	0xbda0aa6a	-0.07845004
41	0xbe05c944	-0.13065058
42	0xbe104f18	-0.14092672
43	0x3d01951f	0.031636354
44	0xbd9bd57c	-0.07609078
45	0xbde26777	-0.110548906
46	0xbe432607	-0.19057475
47	0x3c0d06d5	0.008607586
48	0xbe487935	-0.19577487
49	0xbe018055	-0.12646611
50	0xbc74156b	-0.014897685
51	0x3d360f3b	0.04444812
52	0xbdf72cdc	-0.12069103
53	0xbc8f439d	-0.017488295
54	0xbe02ec81	-0.12785532
55	0xbd7c3ea9	-0.061583195
56	0xbe34b5ac	-0.17647427
57	0xbc93c60f	-0.018038778
58	0xbe0aecd8	-0.13566911
59	0xbdc44adf	-0.09584593
60	0xbddadcc8	-0.10686642
61	0x3cf527bd	0.029926175
62	0xbdfbaae7	-0.122884564
63	0xbdd62c63	-0.10457685
64	0x3d3af5df	0.045644637
65	0xbdc293fb	-0.09500881
66	0xbda2941e	-0.07938407
67	0xbdce2de1	-0.100673445
68	0xbd050b70	-0.03248161
69	0xbdd4a4b1	-0.10382975
70	0xbe45014c	-0.19238776
71	0xbc37ad7b	-0.011210795
72	0xbdec62e0	-0.115422964
73	0xbd2b1a96	-0.0417734
74	0xbe119964	-0.1421867
75	0xbc894ccf	-0.016760258
76	0x3d1d27f2	0.038368173
77	0xbd314681	-0.04328013
78	0xbc0ebbb9	-0.008711749
79	0xbb184112	-0.0023232144
80	0xbe5fe20b	-0.21863572
81	0x3da23a36	0.07921259
82	0xbe0d7128	-0.13812697
83	0xbdb1f7c5	-0.086898364
84	0xbdc8f617	-0.09812563
85	0xbc106f5a	-0.008815611
86	0xbe1bda02	-0.15219882
87	0xbd953809	-0.072860785
88	0xbe3feb18	-0.18742025
89	0xbcad0e53	-0.021124994
90	0xbe5a691b	-0.21329157
91	0xbe65a56c	-0.22426385
92	0x3ceb3968	0.028713897
93	0xbd88b06c	-0.06674275
94	0xbe09af09	-0.13445677
95	0xbe1cd253	-0.15314607
96	0xbdd87e48	-0.10570961
97	0xbdc60df4	-0.0967063
98	0xbdfc7b22	-0.12328173
99	0x3be5d81a	0.0070142867
100	0xbd65e397	-0.05612525
101	0xbe092b84	-0.13395506
102	0xbe2c86d0	-0.16848302
103	0xbddfafa3	-0.10922172
104	0xbd982edc	-0.07430813
105	0xbd4a63b1	-0.04941148
106	0xbe25558d	-0.16145916
107	0xbe1027b2	-0.14077643
108	0x3bc9fd23	0.0061642095
109	0xbda8fcae	-0.0825132
110	0xbe34e4d3	-0.17665415
111	0x3ca3f140	0.020012498
112	0x3cab62f3	0.020921206
113	0xbd3aadc3	-0.04557587
114	0xbe4ef314	-0.20209914
115	0x3ac63682	0.0015122446
116	0xbdf950af	-0.12173592
117	0xbdd2abfc	-0.1028671
118	0x3c26472c	0.010148805
119	0x3d3f1578	0.046651334
120	0xbddcff5b	-0.10790893
121	0xbdb08d1b	-0.08620664
122	0xbda68f6b	-0.081328236
123	0xbe3a6c47	-0.18205367
124	0xbe1273aa	-0.14301935
125	0xbdbe5089	-0.092927046
126	0xbdc59283	-0.096470855
127	0xbcb075f3	-0.021540618
128	0xbe40d32d	-0.18830557
129	0xbd3a3580	-0.045461178
130	0x3da4b15d	0.08041642
131	0xbe2b0582	-0.1670132
132	0x3cb678d9	0.022274422
133	0xbe12151c	-0.14265865
134	0xbe264ff6	-0.1624144
135	0xbe243bb6	-0.16038403
136	0xbe543c43	-0.20726113
137	0xbe27d433	-0.16389541
138	0x3cb8970e	0.022532966
139	0xbe182ce6	-0.14860877
140	0xbda7d1ea	-0.08194335
141	0xbdec05da	-0.115245536
142	0xbdf7f376	-0.12106983
143	0xbdb878a9	-0.09007389
144	0xbcd75fbf	-0.026290772
145	0xbe512d11	-0.20427348
146	0xbe22812c	-0.15869588
147	0xbe68b2ba	-0.22724429
148	0xbe6e350e	-0.23262426
149	0xbdffd2d6	-0.12491386
150	0xbe4b543e	-0.19856355
151	0xbdcd96b6	-0.100385115
152	0xbe09f63b	-0.13472836
153	0xbe185c72	-0.14879015
154	0xbe4f5253	-0.20246248
155	0xbe1886c7	-0.14895163
156	0x3cf1305f	0.02944201
157	0xbe66e20d	-0.22547169
158	0xbdd3c6c9	-0.1034065
159	0xbde4fffa	-0.11181636
160	0xbe26c83d	-0.16287322
161	0xbe4f642c	-0.20253056
162	0xbddbd4bb	-0.107339345
163	0xbe2ea666	-0.17055663
164	0xbdc5462b	-0.09632524
165	0xbe2cf10c	-0.16888827
166	0xbd9d18b3	-0.076707266
167	0x3d17c6dd	0.037054885
168	0xbdb2aa86	-0.08723931
169	0xbdb22e66	-0.08700256
170	0xbde9312c	-0.11386332
171	0xbd99c464	-0.07508162
172	0xbd63735b	-0.055529933
173	0xbe0e2c31	-0.13884045
174	0xbce8e093	-0.028427398
175	0xbd36cac4	-0.044626966
176	0xbe1988f3	-0.14993648
177	0xbddd692e	-0.10811077
178	0xbe80ed0a	-0.25180846
179	0xbdd28f39	-0.10281224
180	0xbe16d884	-0.14731032
181	0xbd622726	-0.055213116
182	0xbc826c80	-0.015920877
183	0xbd84116a	-0.06448634
184	0xbb83c8ca	-0.0040217387
185	0xbe0bb556	-0.13643393
186	0xbdfdb4a7	-0.12387972
187	0x3d405681	0.046957497
188	0xbad5f414	-0.0016323351
189	0xbd2393ef	-0.039936002
190	0xbd80a1bc	-0.062808484
191	0xbe27960c	-0.16365832
192	0xbd66e5a0	-0.05637133
193	0xbe02ed59	-0.12785853
194	0xbd9f61cf	-0.077823274
195	0xbda2eafe	-0.079549775
196	0xbe05db14	-0.13071853
197	0xbccc0d9c	-0.024908833
198	0xbd5c31d9	-0.053758476
199	0xbc916098	-0.017746255
200	0xbdb5e9ab	-0.08882459
201	0xbdbbfdb3	-0.09179249
202	0xbdff7f58	-0.12475461
203	0xbe510723	-0.20412879
204	0xbd5be15c	-0.053681716
205	0xbde32b4d	-0.11092243
206	0xbe5c4627	-0.21511136
207	0xbd862fca	-0.06552084
208	0xbddf494c	-0.10902652
209	0xbded5504	-0.11588481
210	0xbde832aa	-0.113377884
211	0xbca4d4e4	-0.020121045
212	0xbd6bc6fe	-0.05756282
213	0xbdd2b716	-0.10288827
214	0xbe1b024c	-0.15137595
215	0xbc86cc1b	-0.016454747
216	0xbe19a939	-0.1500596
217	0xbce53fbb	-0.02798449
218	0xbca92d19	-0.020651387
219	0xbe11529c	-0.14191669
220	0xbdc5b8e5	-0.096544065
221	0xbdb54851	-0.08851684
222	0x3c161087	0.009159214
223	0xbdfa0468	-0.12207872
224	0xbe06d2d0	-0.13166356
225	0xbe07da7b	-0.13266937
226	0xbe5dbfae	-0.21655151
227	0xbda2fae7	-0.07958012
228	0xbd70bec3	-0.058775675
229	0xbd2e662c	-0.042577907
230	0xbe009d67	-0.12560044
231	0xbe48faec	-0.19626969
232	0xbe3f59cb	-0.18686597
233	0xbd9574bc	-0.07297656
234	0xbe3566f7	-0.17715059
235	0xbcc621df	-0.024186073
236	0xbe0fe29a	-0.14051285
237	0xbda39d4a	-0.07988985
238	0xbd68309f	-0.056686994
239	0xbd0ee2b9	-0.03488419
240	0xbda38151	-0.079836495
241	0xbd815e2d	-0.06316791
242	0xbd695152	-0.05696232
243	0xbcc81c58	-0.024427578
244	0xbcc8f4ea	-0.024530847
245	0xbe745b5e	-0.23862979
246	0xbdaa3cb3	-0.08312359
247	0xbe22cc47	-0.15898238
248	0xbd418d8b	-0.047254127
249	0xbe4b01da	-0.19824925
250	0xbe7bb3b4	-0.2458027
251	0xbcea3487	-0.0285895
252	0xbde56dee	-0.11202608
253	0xbd2cfc20	-0.042232633
254	0xbe129a5d	-0.14316697
255	0xbe11a2c9	-0.14222254

fc3.weight f4 [128, 256]
0	0x3e1807f0	0.14846778
1	0xbd02c24d	-0.03192358
2	0xbd463dd1	-0.048398796
3	0xbcd2e0db	-0.025741985
4	0xbd4d1771	-0.050071184
5	0x3dfa5f55	0.122252144
6	0xbb0e8708	-0.0021747965
7	0xbed7442c	-0.420442
8	0xbce6341f	-0.028101025
9	0x3e98bbea	0.29830867
10	0xbe055568	-0.13020861
11	0xbde9af7a	-0.114104226
12	0x3d0ea55c	0.034825668
13	0xbdd1b79b	-0.10240098
14	0xbe39a3b2	-0.18128851
15	0xbb87e54b	-0.004147207
16	0x3c36efbd	0.0111655565
17	0xbe0e41c9	-0.13892283
18	0x3cdba1c6	0.026810538
19	0xbe48e718	-0.19619405
20	0x3d4d34e2	0.05009926
21	0xbcc41107	-0.0239339
22	0xbe2385ac	-0.1596896
23	0xbd6a0e44	-0.05714251
24	0x3d872da6	0.066005036
25	0xbeef9e14	-0.46800292
26	0x3c56e05d	0.013115016
27	0xbd69a1ea	-0.05703918
28	0xbe27ab5d	-0.16373964
29	0xbb951c63	-0.004550503
30	0xbcc80c62	-0.024419967
31	0x3c3261b9	0.010887557
32	0xbb52aedb	-0.003214768
33	0x3c61fc47	0.013793058
34	0xbd3eca3e	-0.046579592
35	0xbe92c949	-0.28669193
36	0xbbe0c10b	-0.00685895
37	0xbe7f6c41	-0.2494364
38	0xbdee7e93	-0.11645236
39	0xbd26e428	-0.04074493
40	0x3e95405d	0.29150668
41	0xbe09878c	-0.13430613
42	0xbcbeb02c	-0.023277365
43	0xbd4314f0	-0.04762739
44	0x3ec1002f	0.37695453
45	0x3dc940a2	0.09826781
46	0x3c83077d	0.015994782
47	0xbe883e21	-0.266099
48	0xbd1a05c3	-0.03760315
49	0xbe488976	-0.19583687
50	0xbd20fd7f	-0.039304253
51	0xbd2f96bd	-0.042868365
52	0xbd45299a	-0.048135377
53	0x3db45d44	0.088068515
54	0xbdee87aa	-0.116469696
55	0xbd3454a0	-0.044026017
56	0x3e111085	0.14166458
57	0x3cf9ef5e	0.030509647
58	0x3c94d098	0.018165872
59	0xbd8711e2	-0.06595208
60	0xbd6832d7	-0.05668911
61	0xbea08d3e	-0.3135776
62	0x3e0ac2dc	0.13550895
63	0xbdbbfa59	-0.091786094
64	0xbcacf011	-0.021110566
65	0x3cb17dcd	0.021666432
66	0xbd362df3	-0.044477414
67	0xbce5d6f6	-0.028056603
68	0xbe998f51	-0.29992154
69	0xbccc07ae	-0.024906006
70	0xbc19e363	-0.009392592
71	0xbedc496d	-0.4302477
72	0xbd1bf394	-0.03807409
73	0xbe487ac1	-0.19578077
74	0x3dbb778b	0.091536604
75	0xbe22d78e	-0.1590254
76	0xbc88ff4f	-0.016723303
77	0xbe2337be	-0.15939233
78	0xbcc67d71	-0.024229737
79	0x3d8d7539	0.06907124
80	0xbda6f32e	-0.081518516
81	0x3d87a8f1	0.0662402
82	0x3d2b57a7	0.04183164
83	0x3d7739c2	0.060357817
84	0xbe84679a	-0.25860292
85	0xbe2ddb93	-0.16978292
86	0xbdb63f0e	-0.088987455
87	0x3ea176b3	0.31535873
88	0x3d037f1d	0.032103647
89	0xbb1d1223	-0.002396711
90	0xbd8d5225	-0.069004335
91	0x3dca6aef	0.09883677
92	0xbc14a3a9	-0.009072223
93	0xbe4ac033	-0.1979988
94	0x3db8ea0b	0.09029015
95	0xbd57ae37	-0.05265638
96	0x3d6aed17	0.057355013
97	0xbbe94e42	-0.0071199248
98	0x3dc8465e	0.097790465
99	0xbe311962	-0.17294839
100	0xbdac5ec1	-0.084165104
101	0xba740672	-0.0009308822
102	0xbe24c9cc	-0.16092604
103	0xbe11fc1d	-0.1425633
104	0x3df146bc	0.1178107
105	0x3dbce131	0.09222639
106	0xbe4f2ae6	-0.20231208
107	0xbd4a9182	-0.049455173
108	0xbd6fbeb0	-0.058531463
109	0xbe5b742f	-0.2143104
110	0x3ef5083e	0.4785785
111	0xbe081715	-0.13290055
112	0x3bfbdcc1	0.007686228
113	0xbddeceda	-0.108792976
114	0x3d6732d5	0.05644496
115	0xbe6d1546	-0.23152646
116	0xbe0edac7	-0.13950644
117	0xbd54e5b2	-0.051976867
118	0x3dc1e75c	0.094679564
119	0xbe49cb7e	-0.19706532
120	0xbdfea121	-0.12433077
121	0xbd4e62a7	-0.05038705
122	0x3d9d0dea	0.076686695
123	0xbe2e0c7e	-0.16996953
124	0xbe786d03	-0.24260335
125	0xbe36980f	-0.17831443
126	0x3e75355b	0.23946135
127	0x3c8c544d	0.017130041
128	0x3e54b24e	0.20771143
129	0x3cf248c0	0.029575706
130	0xbdf82c77	-0.12117856
131	0xbd7327b1	-0.059364025
132	0xbe061dfd	-0.13097377
133	0x3cd2685c	0.025684528
134	0xbd885364	-0.066565305
135	0x3e2c3ae5	0.16819341
136	0x3d43037d	0.04761075
137	0x3b58fef5	0.003311095
138	0xbc272ac4	-0.010203067
139	0xbdbe5b5e	-0.09294771
140	0x3cd1ac46	0.025594842
141	0xbe22d4fa	-0.15901557
142	0x3c95d189	0.01828839
143	0xbda12e92	-0.07870211
144	0xbe91818d	-0.28419152
145	0x3e11deec	0.14245194
146	0x3d19a4d9	0.037510727
147	0x3de51e8a	0.111874655
148	0x3d51eb93	0.05125005
149	0xbd45d46a	-0.048298277
150	0x3e09ad98	0.13445127
151	0x3da3e54e	0.08002721
152	0xbd81ce92	-0.06338228
153	0xbccbde27	-0.024886204
154	0xbc242327	-0.010018147
155	0xbd5247bb	-0.05133794
156	0xbd801346	-0.06253676
157	0x3dc7bc88	0.09752756
158	0x3d93a843	0.07209828
159	0x3cb033d3	0.021509087
160	0xbc6ccf26	-0.014453685
161	0xbc9162db	-0.017747333
162	0x3c6124f9	0.013741725
163	0xbdcab58c	-0.098979086
164	0xbddebf65	-0.10876349
165	0x3e232f96	0.15936121
166	0xbdb849b5	-0.089984335
167	0xbc83b331	-0.016076656
168	0x3dfb859e	0.12281345
169	0xbd084162	-0.03326548
170	0xbbe893a0	-0.0070976764
171	0xbe64c1ea	-0.22339597
172	0x3dd06a8e	0.10176574
173	0x3e0d0d79	0.1377467
174	0xbeaae84a	-0.33380347
175	0x3c4f76d9	0.012662613
176	0x3c2badfd	0.010478494
177	0xbd958233	-0.07300224
178	0x3d487a23	0.048944604
179	0x3d9ecc81	0.0775385
180	0x3cdb0f02	0.026740555
181	0xba615f44	-0.00085972645
182	0x3d8a7f44	0.06762555
183	0xbde193a1	-0.11014486
184	0xbdbcb870	-0.09214866
185	0xbe61a57b	-0.22035782
186	0xbc911863	-0.017711824
187	0x3d2fa905	0.0428858
188	0xbe882bdf	-0.2659597
189	0xbd774fd8	-0.06037888
190	0x3c3764a1	0.011193425
191	0x3dbc1225	0.09183148
192	0x3dceeee9	0.10104162
193	0x3d1fe294	0.03903444
194	0xbe33674a	-0.1751987
195	0xbc64a4b1	-0.013955281
196	0xbe7c95f9	-0.24666585
197	0xbdc25c8d	-0.09490309
198	0x3e37b981	0.17941858
199	0x3dd01aa6	0.10161333
200	0x3d2fafd0	0.042892277
201	0xba414406	-0.0007372502
202	0xbd487fa5	-0.048949856
203	0xbd2377cd	-0.039909173
204	0xbe16de06	-0.14733133
205	0xbe140dbc	-0.14458364
206	0x3c372724	0.011178765
207	0xbc464a13	-0.012102622
208	0xbcb5a8c0	-0.022175193
209	0xbe5190e8	-0.20465434
210	0xbdefd3e6	-0.11710338
211	0xbdc6cf85	-0.0970755
212	0x3df088fe	0.11744879
213	0xbe1cac2e	-0.15300056
214	0x3d84aa2d	0.06477771
215	0xbe522b07	-0.20524226
216	0xbd8e8407	-0.06958776
217	0xbe172831	-0.14761426
218	0xbdffafb1	-0.12484682
219	0xbe240931	-0.16019131
220	0x3ce99515	0.02851347
221	0xbda69ec8	-0.08135754
222	0xbebc7941	-0.3681126
223	0xbe8ac975	-0.27106825
224	0xbd8a95de	-0.06766866
225	0xbdeed0cd	-0.11660919
226	0x3d2d99b6	0.04238292
227	0xbdd07eb8	-0.1018042
228	0xbed4f85a	-0.41595727
229	0xbd218859	-0.039436672
230	0x3b4fe588	0.0031722505
231	0x3e470ad0	0.19437718
232	0x3db5691b	0.08857938
233	0x3c290b75	0.010317673
234	0xbdabce2a	-0.08388932
235	0xbeb79b7f	-0.35860822
236	0x3e149c1b	0.14512675
237	0x3e06e3b2	0.13172796
238	0x3df070fe	0.117403015
239	0x3d4459de	0.047937267
240	0xbe4d630b	-0.20057313
241	0x3d7009b2	0.058602996
242	0x3d86a686	0.065747306
243	0xbd85ec57	-0.06539219
244	0xbd802317	-0.06256693
245	0x3d3294b1	0.043598834
246	0xbe3ab856	-0.18234381
247	0x3d15dcd9	0.03658757
248	0xbe4ffe02	-0.2031174
249	0x3e0ba417	0.13636814
250	0xbd1b254b	-0.037877362
251	0xbd6f9c1f	-0.058498498
252	0x3e0c2ee5	0.13689764
253	0xbe06c8fe	-0.1316261
254	0xbdbd899d	-0.09254763
255	0xbdd6925b	-0.10477134

fc3.bias f4 [128]
0	0xbe1c2469	-0.15248264
1	0xbe0def2a	-0.13860765
2	0xbe291a02	-0.16513827
3	0xbe345ab0	-0.1761272
4	0xbe83df2b	-0.257562
5	0xbd9b3c34	-0.07579842
6	0xbe0cfc9d	-0.1376824
7	0xbde196c5	-0.11015085
8	0xbe78b181	-0.24286462
9	0xbe1bd0dc	-0.15216392
10	0x3cc53646	0.024073731
11	0xbdf9d266	-0.121983334
12	0xbe42851e	-0.18996093
13	0xbea2a03f	-0.31762883
14	0xbdaa8f16	-0.08328073
15	0x3d1c5cf3	0.03817458
16	0x3d6fa19e	0.05850374
17	0xbdb7a57a	-0.08967109
18	0xbe4e482c	-0.20144719
19	0xbe7961dc	-0.24353737
20	0xbe2ef74b	-0.17086522
21	0xbe27e578	-0.16396129
22	0xbe6481a2	-0.22315076
23	0xbd9d25db	-0.07673236
24	0xbd828d68	-0.06374627
25	0xbdc3bf5b	-0.095579825
26	0x3dbbe8d6	0.09175269
27	0xbdd2b105	-0.1028767
28	0x3b20b0fd	0.0024519556
29	0xbe5d2747	-0.21597014
30	0xbe36dc28	-0.1785742
31	0xbe880f89	-0.26574352
32	0xbda6bb24	-0.08141163
33	0xbe26f853	-0.16305666
34	0xbdad9912	-0.084764615
35	0xbd8500ca	-0.06494291
36	0xbdadd0c6	-0.08487086
37	0xbd2389b4	-0.039926246
38	0xbc016274	-0.007897008
39	0xbadc6d96	-0.0016817327
40	0x3dceed29	0.101038285
41	0xbd937964	-0.07200888
42	0xbe683002	-0.22674564
43	0xbd9e37aa	-0.07725461
44	0xbe31dc38	-0.17369163
45	0x3a742c9c	0.00093145086
46	0xbe011210	-0.12604547
47	0xbe04cb26	-0.1296812
48	0x3c7af431	0.015317009
49	0xbe0aad3e	-0.13542649
50	0xbde4e9fb	-0.11177441
51	0xbe11d093	-0.14239721
52	0xbe3fae50	-0.18718839
53	0xbe36c5ca	-0.17848888
54	0xbe5a6d4b	-0.21330754
55	0x3dac6059	0.08416814
56	0xbe1a9ffd	-0.15100093
57	0xbe020dde	-0.12700602
58	0xbdb129c2	-0.08650543
59	0xbe75b418	-0.23994482
60	0xbe7d8930	-0.24759364
61	0xbda282f9	-0.07935137
62	0xbc83df3a	-0.016097654
63	0xbe5d40c8	-0.21606743
64	0xbd24450a	-0.040104903
65	0xbe4bf30b	-0.19916932
66	0xbe487b9c	-0.19578403
67	0xbe596182	-0.21228603
68	0xbe374d44	-0.17900568
69	0x3bd1cdde	0.006402715
70	0xbda9eb5e	-0.08296846
71	0xbdd02d99	-0.10164947
72	0xbcdc16a7	-0.02686627
73	0xbd308127	-0.04309192
74	0xbe04e5df	-0.12978314
75	0xbe0496a4	-0.1294809
76	0xbe5ef357	-0.21772514
77	0xbdc02043	-0.093811534
78	0xbd2de011	-0.042450015
79	0xbdaff20d	-0.085910894
80	0xbdc19902	-0.09453012
81	0xbe2248c4	-0.1584807
82	0x3d45f0ba	0.048325278
83	0xbd6ea936	-0.05826684
84	0xbc04a2d2	-0.00809546
85	0xbd9fec94	-0.078087956
86	0xbe77924a	-0.24176899
87	0x3cd4860e	0.025942829
88	0xbe2fbc61	-0.17161705
89	0xbe6fb2e4	-0.23408085
90	0xbdd25ba9	-0.10271389
91	0xbe50a273	-0.2037447
92	0x3d6f8c3c	0.058483347
93	0xbe155f26	-0.14587077
94	0xbe101448	-0.14070237
95	0x3c79ba12	0.0152421165
96	0xbdc2a987	-0.09504991
97	0xbd2ae32f	-0.041720565
98	0xbdceecb1	-0.10103739
99	0xbddd8d51	-0.108179696
100	0xbe53c843	-0.20681863
101	0xbe22cadc	-0.15897697
102	0xbe4c2f96	-0.19940028
103	0xbe066485	-0.13124283
104	0xbde78c65	-0.11306075
105	0xbe52cca7	-0.20585881
106	0xbe18d557	-0.14925133
107	0xbe8d90ba	-0.2764948
108	0xbe1c6620	-0.15273333
109	0x3cb75ff7	0.022384627
110	0xbe22823d	-0.15869994
111	0xbe014ab6	-0.12626156
112	0xbe2939d3	-0.16525964
113	0xbdabc0ab	-0.08386358
114	0xbc37feac	-0.011230152
115	0xbe50a5ae	-0.20375702
116	0xbe07dad0	-0.13267064
117	0x3a725333	0.0009243965
118	0xbd684b8c	-0.056712672
119	0xbe5d049e	-0.21583793
120	0xbe5cfeca	-0.2158157
121	0x3db3352a	0.087503746
122	0xbe2b960d	-0.16756459
123	0xbd54f4e1	-0.051991347
124	0xbe4e8c3a	-0.2017068
125	0x3d2f2c62	0.042766936
126	0xbe4cca5b	-0.19999067
127	0xbda1a5cf	-0.078929536

fc4.weight f4 [64, 128]
0	0xbe13b55c	-0.14424652
1	0xbd0aa7b1	-0.03385133
2	0x3e08e630	0.1336906
3	0x3caaf05d	0.020866567
4	0x3e6b514b	0.2298023
5	0x3e0b7aa8	0.13621008
6	0xbdcce401	-0.10004426
7	0x3d2be46b	0.041965883
8	0xbe177730	-0.1479156
9	0xbe8158dd	-0.2526311
10	0xbdfd7615	-0.12376038
11	0x3e0db3c6	0.1383811
12	0x3ded5ecf	0.11590349
13	0xbe159c2e	-0.14610359
14	0x3d934a6e	0.07191931
15	0x3df8150e	0.12113391
16	0x3e20f56f	0.15718625
17	0xbda948ea	-0.082658604
18	0xbda58a87	-0.080830626
19	0xbd9e902f	-0.077423446
20	0xbd997fe1	-0.07495094
21	0xbd15d1d0	-0.036577046
22	0xbe0c1489	-0.13679709
23	0x3e7c22de	0.24622676
24	0xbd47eb31	-0.04880828
25	0x3c02eab1	0.007990525
26	0x3d5100ed	0.051026274
27	0x3dacd375	0.0843877
28	0xbd8adee8	-0.06780797
29	0xbe0ce298	-0.13758314
30	0xbd98afa2	-0.07455374
31	0xbdf6ead7	-0.12056511
32	0xbc8fb4c5	-0.017542252
33	0x3e3ac2d8	0.1823839
34	0xbd8d227d	-0.06891344
35	0x3d09c9ef	0.033639845
36	0x3d8a5be9	0.06755812
37	0xbe1e748c	-0.15474147
38	0xbd9d0563	-0.07667043
39	0xbd926fca	-0.07150228
40	0x3e15775f	0.14596318
41	0x3c9f7e9c	0.019469552
42	0x3df1849f	0.117928736
43	0x3e064734	0.131131
44	0xbe5a5e65	-0.21325071
45	0x3945e12f	0.00018871271
46	0x3da91f1c	0.08257887
47	0x3dfac26e	0.12244116
48	0x3db7b687	0.08970361
49	0xbd257458	-0.040394157
50	0x3d8e0982	0.06935407
51	0x3d277e09	0.04089168
52	0x3d04b106	0.032395385
53	0x3df9e968	0.12202722
54	0xbd10af57	-0.035323467
55	0x3e4f6ce9	0.2025639
56	0xbd691a44	-0.056909814
57	0x3e28cef6	0.164852
58	0xbc9888f8	-0.01862
59	0x3d63143c	0.05543922
60	0x3d4625e1	0.048375968
61	0xbd9c3e51	-0.076290734
62	0xbe57197d	-0.21005817
63	0xbe21146b	-0.15730445
64	0xbdea8a07	-0.11452108
65	0xbcfb43c5	-0.030671963
66	0xbe3ac0e3	-0.18237643
67	0x3d98b44f	0.07456266
68	0xbd6b1dcb	-0.05740146
69	0xbc615bd6	-0.013754806
70	0xbdff813b	-0.12475821
71	0x3ded7bb7	0.11595862
72	0xbf2e655f	-0.6812343
73	0x3d13b16b	0.03605787
74	0xbd123177	-0.035691705
75	0x3df85fc6	0.12127642
76	0x3d9ed348	0.077551425
77	0x3db8ca72	0.090229884
78	0xbd01a0c9	-0.031647477
79	0xbe92977b	-0.28631195
80	0x3cad8178	0.0211799
81	0x3cfdb6b1	0.030970903
82	0x3deb1acd	0.11479721
83	0xbdc60550	-0.09668982
84	0xbd9caa17	-0.076496296
85	0xbdc4c36f	-0.096075885
86	0xbca56638	-0.020190343
87	0x3deb79e6	0.1149786
88	0x3df76813	0.120803975
89	0x3d0600de	0.03271567
90	0x3dbc292e	0.09187542
91	0x3c7c8cb4	0.015414406
92	0xbd7830a1	-0.06059325
93	0x3be6af6c	0.007039955
94	0xbe8a704f	-0.2703881
95	0x3c322604	0.010873321
96	0x3ca405f5	0.020022372
97	0x3da24c90	0.079247594
98	0xbe660296	-0.22461924
99	0xbd725b3d	-0.059169043
100	0xbdbc205c	-0.091858596
101	0xbce4a0af	-0.027908651
102	0x3cb9dd6a	0.022688586
103	0xbea9b205	-0.3314363
104	0x3d7dc11e	0.06195175
105	0x3d8af77d	0.06785486
106	0xbdf486e1	-0.119397886
107	0x3dc9880c	0.09840402
108	0x3d7ca61a	0.061681844
109	0x3d1f77cd	0.03893261
110	0xbdbf6d4a	-0.09347017
111	0x3d836d9e	0.06417392
112	0xbbc9e9ac	-0.006161889
113	0xbe8760a1	-0.2644091
114	0x3d1f345c	0.038868293
115	0xbbce48dd	-0.006295307
116	0xbd99fe8c	-0.07519254
117	0x3e4bd189	0.1990415
118	0xbeea62d1	-0.45778516
119	0x3df6a950	0.120440125
120	0x3e08b896	0.13351664
121	0xbe0aaac7	-0.13541709
122	0x3d9f990e	0.07792865
123	0x3e07f458	0.13276803
124	0x3e95c165	0.2924911
125	0x3e035945	0.12827022
126	0x3d475d67	0.04867306
127	0x3da7f1ec	0.0820044
128	0xbcd196ef	-0.025584666
129	0xbe17072e	-0.14748833
130	0xbd1fc479	-0.03900573
131	0x3d35b8d5	0.044365723
132	0x3dd02be6	0.10164623
133	0xbe29fb95	-0.16599877
134	0x3d96721b	0.07345983
135	0x3d08b6ff	0.033377644
136	0xbe310cf4	-0.17290097
137	0xbdf69330	-0.120397925
138	0x3d06e59f	0.032933827
139	0x3d3b8611	0.045782153
140	0xbd7d2ad3	-0.06180842
141	0xbd0dd745	-0.034629125
142	0xbd1991b5	-0.037492473
143	0xbe7f801d	-0.24951215
144	0xbe0c37e0	-0.1369319
145	0x3b0c9d33	0.0021456003
146	0xbe1f6d36	-0.15569004
147	0x3c8432e8	0.016137555
148	0x3e476759	0.19473018
149	0x3bfb1170	0.007661991
150	0x3e3666fc	0.17812723
151	0xbd1d5c5e	-0.038418166
152	0xbe2d4176	-0.16919503
153	0xbe61dc88	-0.22056782
154	0xbe387b74	-0.18015844
155	0x3ca51e37	0.02015601
156	0xbe321587	-0.17391025
157	0x3c2f5eae	0.010703726
158	0xbe73e471	-0.23817612
159	0x3d91d55a	0.07120772
160	0xbe96f112	-0.29480797
161	0xbe2560b4	-0.1615017
162	0xbde51f0b	-0.111875616
163	0xbcec4c54	-0.02884499
164	0xbe3ca183	-0.18420987
165	0xbe36f187	-0.17865573
166	0xbe253be3	-0.16136126
167	0xbcf3c2cc	-0.029755972
168	0xbca88b3b	-0.020574203
169	0x3d29047d	0.041264046
170	0xbd138cee	-0.036023073
171	0xbdf5b9fc	-0.11998364
172	0xbdb22e2a	-0.08700211
173	0x3d923e12	0.07140745
174	0xbd2b5a01	-0.04183388
175	0xbd8d3b91	-0.06896127
176	0xbd965d75	-0.07342044
177	0x3b9e5b95	0.004832695
178	0xbe17c6fe	-0.14822003
179	0xbe31db63	-0.17368846
180	0xbde3ea51	-0.11128677
181	0xbd99ca7a	-0.075093225
182	0xbdb33995	-0.08751217
183	0xbe0abbb3	-0.13548164
184	0x3d87d54e	0.066324815
185	0xbc9f6aeb	-0.019460162
186	0x3d6f5360	0.058429122
187	0x3daf047f	0.085457794
188	0xbd96648c	-0.073433965
189	0xbe829b93	-0.2550932
190	0xbd901dfc	-0.07036969
191	0xbda0f041	-0.07858325
192	0xbe977750	-0.29583216
193	0x3d426e66	0.047468565
194	0xbde91588	-0.1138106
195	0xbd3bd2ea	-0.04585544
196	0xbc8caffa	-0.017173756
197	0x3e10945e	0.14119098
198	0xbea813cc	-0.32827604
199	0xbde7cc1f	-0.1131823
200	0xbd7a7c13	-0.061153483
201	0x3eb38862	0.3506499
202	0xbe08ac7e	-0.1334705
203	0xbdc9ec57	-0.098595314
204	0xbe1b5bfb	-0.15171807
205	0xbd24cbdf	-0.04023349
206	0xbb304274	-0.0026895078
207	0xbe03b5aa	-0.12862268
208	0xbd9803b2	-0.0742258
209	0xbd80b33f	-0.062841885
210	0xbe0bf3b9	-0.13667192
211	0xbb75c188	-0.0037499387
212	0xbde7d3db	-0.11319705
213	0xbd919b06	-0.071096465
214	0xbd838f61	-0.06423832
215	0x3dfe0907	0.124040656
216	0xbd4de445	-0.050266523
217	0x3d40ba2a	0.04705254
218	0xbdf6b13b	-0.12045523
219	0x3bdca586	0.006733599
220	0xbc175686	-0.009236937
221	0xbe00f714	-0.12594253
222	0x3cbc19f4	0.022961594
223	0xbd8159d7	-0.06315964
224	0xbd4b5f13	-0.049651217
225	0xbea29f60	-0.31762218
226	0xbd6285ed	-0.055303503
227	0xbca9bfa8	-0.020721272
228	0x3c773f8a	0.0150908325
229	0xbd9f68f4	-0.0778369
230	0xbe2a23a0	-0.16615152
231	0xbe086f69	-0.1332375
232	0x3c57f47e	0.01318085
233	0x3df20f75	0.118193544
234	0xbb95d5fa	-0.004572627
235	0x3d620a84	0.05518581
236	0x3d6dc57c	0.058049664
237	0x3d2766f0	0.040869653
238	0xbd783578	-0.060597867
239	0x3d62d7bb	0.055381518
240	0xbdd0e6f0	-0.10200298
241	0x3d5d4203	0.05401803
242	0xbe05dd5a	-0.1307272
243	0xbd42c2dc	-0.047549114
244	0x3d8a8ec6	0.06765513
245	0xbe10c6bc	-0.14138311
246	0xbee1cf3f	-0.4410343
247	0xbc866fd8	-0.016410753
248	0xbd00b385	-0.031421203
249	0x3c112290	0.008858338
250	0xbda82b48	-0.0821138
251	0xbc079ad4	-0.00827666
252	0x3df21720	0.11820817
253	0xbe4df6b3	-0.2011364
254	0x3d9e227b	0.077214204
255	0xbe987cc4	-0.2978269

fc4.bias f4 [64]
0	0xbd3bcd5b	-0.04585014
1	0xbd9f5de3	-0.07781579
2	0xbd3d53d0	-0.046222508
3	0xbd80deae	-0.06292473
4	0xbddc9ec4	-0.1077247
5	0xbe84ba72	-0.25923496
6	0xbe1e8e57	-0.15483986
7	0xbd91890e	-0.07106219
8	0xbd1be54b	-0.038060468
9	0x3d902af9	0.070394464
10	0x3d30ec24	0.04319395
11	0xbd9592a6	-0.073033616
12	0xbd9d166d	-0.07670293
13	0x3db7e9de	0.089801535
14	0xbe47b400	-0.19502258
15	0x3dff0e3c	0.12453887
16	0xbdc9b43b	-0.09848829
17	0xbdb8008a	-0.08984478
18	0xbe12d720	-0.14339876
19	0x3d94a9e3	0.07258966
20	0xbd8c7b92	-0.06859507
21	0xbe04b283	-0.12958722
22	0xbc0587a3	-0.008150014
23	0xbdfbdfb6	-0.12298529
24	0xbdbfba1a	-0.09361668
25	0xbd4f12e0	-0.05055511
26	0xbe2303f1	-0.15919472
27	0xbc11d82c	-0.008901637
28	0xbd9e4f19	-0.077299304
29	0xbd93de87	-0.07220178
30	0xbb733dee	-0.003711577
31	0xbc4e133c	-0.012577828
32	0xbe2b78f4	-0.16745359
33	0xbe25a323	-0.16175513
34	0x3da16fb2	0.07882632
35	0x3d16b207	0.036790874
36	0xbdb23c4a	-0.087029055
37	0xbdcd52f7	-0.1002559
38	0xbe8b86b5	-0.2725121
39	0xbe2c40f8	-0.16821659
40	0x3a43c407	0.000746787
41	0xbdf417db	-0.119186126
42	0xbe3ccf8a	-0.18438545
43	0xbdac45c3	-0.084117435
44	0xbe34a103	-0.17639546
45	0xbe03d66a	-0.12874761
46	0xbe48aba5	-0.19596727
47	0xbd44bdd8	-0.04803261
48	0x3b8cf6e3	0.004301892
49	0x3cec055c	0.02881115
50	0x3c671439	0.014103943
51	0xbe7dfabb	-0.24802677
52	0xbdf35348	-0.11881119
53	0xbd7b1b29	-0.0613052
54	0xbd9653bf	-0.07340192
55	0x3daf3c51	0.08556426
56	0xbcb4d207	-0.022072805
57	0xbc990aa8	-0.01868184
58	0xbd7d178d	-0.061790038
59	0xbe10a9d0	-0.14127278
60	0xbde1813b	-0.11010977
61	0xbe497800	-0.19674683
62	0xbde6fbd9	-0.11278505
63	0x3d190bb4	0.037364677
